ad_attack/chkpt_files/fastai_pathmnist_96_weights.pt (torch, 988192 bytes, 36 tensors)

conv1.0.weight f4 [32, 3, 3, 3]
00000000: 23d4 353c b0d3 1b3d 63b5 74bd 9c7f 6e3e
00000010: d7a6 9a3c 675d 9b3d 1d09 c3bc 9fb5 033e
00000020: 9c6c 0ebe deaa eb3d d642 01be e6e3 4c3b
00000030: 8cfb 34be e584 42bd 7ec2 1dbd 057e 25bc
00000040: 9f28 1fbe 8d52 0c3e db18 b2bd 7def 80be
00000050: 2db7 9e3d ff10 0f3c cea7 37be 878d 12bd
00000060: 8571 523d 5d8a 26be 6ef0 f03d dec8 043d
00000070: 4ea6 6d3c 93c2 5cbc 45ef e5bc afc7 cd3d
00000080: d2a4 a33d d0a3 d6bd 5b56 3abe e314 e9bd
00000090: d50c 4c3e 977a 2f3e 805c f5bd b138 073e
000000a0: 2e95 383e 394c 273e d023 bfbc 95a2 5d3c
000000b0: 7b98 1dbc 1b2d 47be 9ad1 22be 41fb 3cbd
000000c0: 7ab6 51bd ed21 e23d 19e7 46bd cf3c cbbc
000000d0: 5e11 1abe 1c54 f13d a829 5ebd 1ddf fa3d
000000e0: f5bf df3d 0924 78bd 83e3 323e 5114 983c
000000f0: 4d6f 80be 7021 db3d 8655 d7bd 1da5 e8bd
00000100: 8ce2 0fbe a482 02ba 113c 3fbd 1cd9 533d
00000110: 958c afbd d56e 183d 631f 533e d939 d9bc
00000120: 6b51 563e 1a7e ffbd 1c5e 88bc ad90 ee3d
00000130: d7ae 993a 5573 ce3c 5106 20be 1853 08be
00000140: fda2 a33d dbe9 27be af42 863c abd5 183e
00000150: 9cd7 00be 8172 323d e532 a9bd d413 423e
00000160: 71b6 37bc 642e 383e 474d 193e eeba 613e
00000170: 789a 13be b794 8d3d 412d 203d e890 0c3c
00000180: b42a b1bd e021 06be cd49 1dbc b3b4 b9bd
00000190: 5e88 41be 53fc 00be 5814 d3ba 8a3d 9c3d
000001a0: 5d45 ddbd aabb 8fbd c0fa 0b3e 7b35 583c
000001b0: eacf 223e 9319 ba3e 569a ac3e acbf b73c
000001c0: 0e3b 61be f6c2 8a3d c7c8 193e 6ea7 7eba
000001d0: 6c80 0b3e 5dd6 73bd ae19 103e 91cc 1abd
000001e0: 8a09 11be 38b8 eabd 471b 98bd c5b5 703d
000001f0: 31fa c63d f354 b23c 8bc0 d6bc 9507 ef3d
00000200: c910 e23d 312e 943d 1adf 07bd 4e82 c7bd
00000210: 5c42 6bbe ae6f 8f3d 0e89 32be e5e4 8d3d
00000220: 9d5d d1bd e573 2c3e ef9c f2bc 5410 543e
00000230: 0a7e 1dbe bf5e 363e 88fb e1bd e9e1 233e
00000240: 1db7 55bd 853a 69bb 60a5 35be 2406 34be
00000250: 7a5b 56bd d167 34be bbe9 933d 6730 29be
00000260: b6e2 9dbd 3b43 6c3d 6c79 2f3b 64d1 e03d
00000270: 3fb6 44bc a3a3 8abd 1583 f9bd b95b 1e3e
00000280: a4c5 173e 31ef 15be 9f1c 983d 4f96 5dbd
00000290: 92b1 e53d 20ea 6d3d 7f67 0e3e e4a9 ca3d
000002a0: c607 85bd 63a1 59be 0ff4 cabd 2d4c afbc
000002b0: 0080 2c3e cdfa 083e 0250 eebd 3ea7 79be
000002c0: 58d2 593c 54fb 26be 85c8 afbe 870c 0ebe
000002d0: d2bc 1ebd e78b d6bc 42ac a1bc a358 293e
000002e0: 4228 1cbd dc87 083c b77e 353e 8675 d9bd
000002f0: 7e90 be3d 5a22 273d 7a4d 753d 0282 eb3d
00000300: 884f aabd 98ef fa3d c00c 3a3e cf7b 94be
00000310: 3a34 89bd 887d c8bd c683 9b3d 8642 88bd
00000320: c403 dfbd 1e93 763d 17e4 0ebe c4c8 14be
00000330: 81b8 313e 40f6 c13d 6307 b83c cf12 1cbe
00000340: 73c0 8f3d c831 8a3d db28 313d 86aa 05be
00000350: 6e85 94bc 429d 0f3e 281b e4bc 46da 9e3d
00000360: b191 193e e214 d53d f0db 74be 6ea0 3b3d
00000370: 0f74 70bb fd63 933d cca0 1cbe fecb 6a3e
00000380: 54fe c9bd 3d58 efbd 3cc7 e9bd 2d5a 08be
00000390: b51b 113e ab40 603d 6ab2 9abd 7813 45bd
000003a0: 282f 8cbd 4732 533d a66b 1b3e 8572 fe3d
000003b0: 9faa c23d de08 02be ab16 953d 7e19 a63c
000003c0: 113c 04be e409 c9bd a767 b7bb 981f 113e
000003d0: 3d3b 8bbd 0768 59be d252 9d3d e974 61bd
000003e0: f29a 5b3b 8860 583e 99ad 5bbe 23d1 423e
000003f0: 55fc 7ebd ef7e ae3c 149e 20bd e738 f23d
0.011097941 0.038043678 -0.059743296 0.23290867 0.018878384 0.075861745 -0.023808056 0.12862252
-0.13908619 0.115072 -0.12623152 0.0031263768 -0.17674083 -0.04749002 -0.03851556 -0.010100846
-0.1554284 0.13703366 -0.08696147 -0.25182715 0.07749782 0.0087320795 -0.17935106 -0.035779502
0.051377792 -0.16263719 0.11764608 0.032418124 0.014504982 -0.0134741245 -0.028068194 0.10047852
0.07990421 -0.104804635 -0.18197004 -0.11380937 0.1992677 0.17136608 -0.119805336 0.1320522
0.18025658 0.1633767 -0.023332506 0.013527532 -0.009618874 -0.194508 -0.15900269 -0.046138052
-0.051199414 0.11041627 -0.048560236 -0.02480927 -0.15045688 0.11783621 -0.054238945 0.12249587
0.10925285 -0.06058124 0.17469601 0.018564375 -0.25084916 0.10699737 -0.10514359 -0.11359618
-0.14051265 -0.00049785734 -0.046688143 0.051720724 -0.08571736 0.037215073 0.20617442 -0.026516842
0.20929496 -0.12475224 -0.016646437 0.116486885 0.001172508 0.025201479 -0.1562741 -0.13312948
0.07990072 -0.16397803 0.01638922 0.14925258 -0.12582248 0.04356623 -0.082616605 0.18952876
-0.011212931 0.17986447 0.14970885 0.22043964 -0.14414394 0.06913131 0.039105657 0.00857947
-0.08650723 -0.1309886 -0.009600115 -0.09067669 -0.18899676 -0.12596254 -0.0016104085 0.07628925
-0.108042456 -0.07018216 0.13669872 0.0131963445 0.15899625 0.36347637 0.337115 0.022430263
-0.21995184 0.06775467 0.15017997 -0.000971428 0.13623208 -0.059530605 0.14072296 -0.037792746
-0.14163795 -0.11460918 -0.07427078 0.0587671 0.09715689 0.021769023 -0.026214859 0.11671368
0.11038358 0.07235373 -0.03317175 -0.097416505 -0.22974533 0.07003723 -0.17435095 0.06928424
-0.102229334 0.16841085 -0.029615847 0.20709354 -0.15380111 0.1780958 -0.11034304 0.16004147
-0.052176584 -0.003558786 -0.17738867 -0.17580467 -0.052333333 -0.17617728 0.07222315 -0.1652237
-0.07709257 0.057681303 0.0026775254 0.10977438 -0.0120063415 -0.067694925 -0.12183205 0.15464677
0.14821488 -0.14642026 0.07427334 -0.054098424 0.112155095 0.058084607 0.13906668 0.09895685
-0.06495623 -0.2125297 -0.09909832 -0.021398628 0.16845703 0.13376923 -0.11636354 -0.24380204
0.013294779 -0.16306812 -0.34332672 -0.13871966 -0.03875429 -0.026189758 -0.01973546 0.16537718
-0.03812433 0.008333173 0.17724119 -0.10618119 0.093049034 0.040804245 0.05988834 0.114994064
-0.08315951 0.1225273 0.18168926 -0.29000708 -0.066994146 -0.09789568 0.07593493 -0.06653313
-0.1088939 0.060198896 -0.13954197 -0.14529711 0.17355539 0.094707966 0.02246446 -0.1524155
0.07019129 0.06747776 0.043251853 -0.13053331 -0.01813003 0.14024833 -0.02784498 0.07756476
0.14996983 0.10404374 -0.23912024 0.045807295 -0.003669027 0.071968056 -0.15295714 0.2292938
-0.09862962 -0.11686752 -0.11414954 -0.1331565 0.14170726 0.054749172 -0.07553561 -0.04811427
-0.06844932 0.05156162 0.15177783 0.124241866 0.095052 -0.12698695 0.07279714 0.020275827
-0.12913539 -0.098163396 -0.005597073 0.14172208 -0.06798408 -0.2123109 0.07681812 -0.055043135
0.0033509103 0.21130574 -0.21452941 0.19025092 -0.06225236 0.021300761 -0.039213255 0.118272595

conv1.0.bias f4 [32]
00000000: a821 bd3d 1a46 1fbe f13f c9bd 5007 2b3e
00000010: d579 3abe 3203 aebd bf80 ffbd 4731 c83d
00000020: 7d14 1cbe 716f f23d 0f36 35be 472e bf3c
00000030: f87f 86bd 4c28 5c3c ec87 543d 4c13 36be
00000040: 60b1 2d3c 3724 513d 3e27 bd3d 84c1 413e
00000050: b6ae 3b3e 38f6 dbbd c51f 5b3d bb51 823d
00000060: d893 c03d 7fb2 0a3e 08ec 80bd 08c1 913c
00000070: bb43 63bd f19b 223e 78f1 633d 1e03 03be
0.09234935 -0.15554085 -0.09826649 0.16702008 -0.18210538 -0.08496703 -0.12475728 0.09775024
-0.1524219 0.11837662 -0.17696403 0.023337496 -0.06567377 0.013437342 0.051887438 -0.17780799
0.0106013715 0.051059928 0.092360005 0.18921477 0.18328366 -0.10740322 0.053497095 0.06363245
0.09403199 0.13544653 -0.062950194 0.01779224 -0.055484515 0.158798 0.055650204 -0.12794158

conv1.1.weight f4 [32]
00000000: 392c 2e3f 34cf 7f3f 3f17 643f 5c5e 533f
00000010: df0b 3f3f 1559 703f 85e1 663f ab96 943f
00000020: f3cb 353f ed6d 903f c5de 793f ed3f 513f
00000030: 4344 443f 3cce b13f 2d78 873f a9d5 933f
00000040: 0732 883f 31ad 8f3f 355d 8d3f b1d3 7a3f
00000050: ac94 813f af75 8f3f 0718 6f3f 4758 9f3f
00000060: e78b 553f 80ab 6b3f 82c9 8a3f 9b37 853f
00000070: 717e 423f e873 883f fcf3 223f 466f 8a3f
0.6803623 0.9992554 0.8909797 0.82565856 0.7462749 0.9388593 0.90187865 1.160848
0.71014327 1.1283547 0.97605544 0.8173817 0.7666666 1.3891063 1.058355 1.1549579
1.0640267 1.1224729 1.104407 0.97979265 1.0123496 1.1207789 0.9339604 1.2448815
0.834166 0.92058563 1.0842745 1.0407594 0.75974184 1.0660372 0.6365354 1.0815208

conv1.1.bias f4 [32]
00000000: 2645 cebe bf00 16be a231 dfbc 37a6 bebd
00000010: ed11 91be f353 12bc ded1 c3bd b1b2 dc3e
00000020: 72d8 9abe e01d fc3d 9bab 25be c05f 10be
00000030: 4dc6 dfbd a24e 463f 3fae 353e 6c59 8b3e
00000040: b28c 5bbd 75d0 983d 84c9 373d 3cd5 22be
00000050: fbc3 2d3e 178b 9e3e f22e 783e 7b02 4f3e
00000060: 480b 543d 106e 2e3c 041d cb3e 2f1a e5bd
00000070: 165d 82be cd62 8f3c d279 07be bde3 2c3e
-0.4028713 -0.14648722 -0.027245346 -0.09309047 -0.2833399 -0.008931148 -0.09561513 0.4310508
-0.3024326 0.12310386 -0.16178744 -0.14099026 -0.10926495 0.77463734 0.17742251 0.2721666
-0.053600974 0.07461635 0.044869915 -0.15901655 0.16969292 0.30965492 0.24236658 0.2021579
0.05176857 0.010646358 0.39670575 -0.11186635 -0.25461644 0.017503167 -0.13230065 0.1688375

conv1.1.running_mean f4 [32]
00000000: 29b2 ce3d ace2 04be 9c39 cebd ccd1 363e
00000010: e66d 41be 6c13 d3bd 54dc 11be ab82 c33d
00000020: 2814 25be aeec ff3d 7ad1 3ebe 926d 993c
00000030: b57b 88bd 0b11 483c c249 813d cb22 30be
00000040: dcb4 913b 7cd7 fc3c eded ac3d 3f90 3c3e
00000050: f6e4 5c3e 2dce e9bd e895 3a3d 7a1c 793d
00000060: f7fd d53d 4ad7 043e 8bc2 39bd a1f6 28bc
00000070: 644e 43bd fce4 1e3e 050b 773d b0d8 04be
0.10092575 -0.12977093 -0.10069582 0.17853469 -0.18889579 -0.10306439 -0.14244205 0.09546407
-0.1612097 0.12496315 -0.18634596 0.018729005 -0.0666422 0.012211095 0.06312896 -0.17200772
0.004446609 0.03086447 0.08443818 0.184144 0.21571717 -0.11416278 0.045553118 0.060818173
0.104488306 0.12972751 -0.045351546 -0.010312707 -0.04768218 0.15517038 0.060313243 -0.12973285

conv1.1.running_var f4 [32]
00000000: 0db0 6d3e 5729 dd3d 304a 313d 4dc3 0b3d
00000010: eb96 273f 0099 4d3e 758e b43e 9d4d 7f3c
00000020: 5663 903d 9689 d33d 1792 bf3d 0e8c 133f
00000030: b89e 5e3e 44ac 9c3b 37f3 473e 9057 113d
00000040: 123f 863d 8c89 f63d a63c c33d a9fb 5f3e
00000050: daa0 e53d dcda c13c 0c57 233d 0300 3a3d
00000060: fc27 8a3d 1280 bf3d 1535 0b3d 814b 8d3e
00000070: 1acd 133e 5b54 f43c cd02 c63d 9da5 9b3c
0.2321169 0.107989006 0.04328364 0.0341218 0.6546466 0.20077896 0.35264936 0.015582469
0.07050197 0.10328977 0.09354036 0.5763558 0.21740234 0.004781278 0.19526373 0.035483897
0.065549985 0.12037954 0.09533052 0.21873344 0.112123206 0.02366393 0.039877936 0.045410167
0.06745908 0.09350599 0.03398617 0.27596667 0.14433709 0.02982538 0.09668503 0.018999869

conv2.0.weight f4 [32, 32, 3, 3]
00000000: 26af 623d 515e 66bd dd43 cf3c 4d24 4a3d
00000010: e207 1cbd ebdf 013e 5f59 513d 520e 81bd
00000020: cfc5 823d 6a89 4d3d 3a3b e93b da83 5f3b
00000030: 7b3b 6dbd fc38 bbbd aab0 a3bd cd09 33bd
00000040: 3b0f 993d f091 54bc f942 9bbd 4a4c b33d
00000050: 6346 e5bd 3ca5 423c 1f2b deb9 8dc6 773b
00000060: dc0d d93c dad8 1dbd bc77 753d d370 aabd
00000070: b90e 3e3d f24e 8fbd ba32 d63a a2fb 0a3d
00000080: 1c2c 55bd dec7 14bd ff98 843d 6e86 f13c
00000090: c620 b6bc b298 be3d 266a 10bd 09a0 01bc
000000a0: 9fa2 a43d f842 3bbd 95bf 64bd 50ad e6bc
000000b0: f046 43bd 410e 85bd 5122 fd3c a15c a83b
000000c0: 968d 5bbd fbca 7a3c 007f 48bc 48c9 9ebc
000000d0: 4545 033d f520 2fbd 2861 04bc f678 03be
000000e0: 082a b5bc cf41 9d3c 40a0 53bd 7e1b 80bc
000000f0: 1138 81bc b0a2 6bbd b4b4 c3bc 7ad0 b23d
00000100: 3e63 b6bd c966 cb3d 7864 ea3b 680b 06be
00000110: b565 2f3d a5b7 383c 6705 c63c 03d2 7d3c
00000120: 1d59 723d e489 b73b fe8b 20bd e0ac 1f3b
00000130: 323b 483d 13fd 2bbd 44b3 343c 0604 1d3d
00000140: a202 39bd a7c6 843d 79cd 37be 73d1 933d
00000150: b888 4ebd 4b07 45be d1d7 863d d2cc 91bd
00000160: 01aa 49bd d22f 823d 6e8d 763d 68ce 7a3d
00000170: ae1c 8e3b 137c 1abd 5051 f73b 1982 90bc
00000180: 1cee 413d 60ac 2a3c 0e95 873c dbde 843c
00000190: 43db 9abb c10d 43bd a178 66bd 4bc9 e1bc
000001a0: 9c7c 5b3d 3b69 3cbd 9216 da3b 72b7 28bc
000001b0: ddf8 ebbd a023 2dbd 8152 d73d ab1b 8fbd
000001c0: 7a55 333d 3ff5 353d 346b 11be 1abc 7dbd
000001d0: 7f9a ff3c b49b fbbd 9a83 673e ca2d 9cbd
000001e0: 0d6f 06be d11a 493e a602 b8bd 61ae 32bd
000001f0: a1fc fc3d a7f5 5cbd 761a b7bc 6dda bfbd
00000200: 3e46 07be 56a0 193d 26aa 64bd 8c4f 8ebd
00000210: 9bcb 3ebd 26b6 edbd 62e8 99bd f746 8c3b
00000220: fa4c 4cbe 2986 b53c 698a 84bd aefd 74bb
00000230: 74be 533c 4b80 a6bd b9ec 1e3d 8db2 8bbd
00000240: d904 be3d f01e 29be e761 2e3d d6c0 d73d
00000250: c640 2cbe 2b12 b43d a5aa 4dbc 4d31 7bbd
00000260: ecdc 7e3d cc05 aa3d cc4f 72bc 754a 033b
00000270: 9d11 1f3e 56d1 2fbe 383e b5bb 7742 ad3d
00000280: d292 11bd cbc1 c63d cb83 29bd 76ba 26bd
00000290: f96d e23c 3734 4ebd 35f6 bebc 52a4 c4bd
000002a0: 5baf 993c 3142 9d3d 77ce d1bd 104e 7bbe
000002b0: db21 6fbd 5063 d2bd 9148 d7bd f537 4cbd
000002c0: a6fa 06be 2680 0ebe 3d95 f7bd fb02 1cbe
000002d0: e2ba 833d 1f8f 3e3c e802 763c 940f 253d
000002e0: 9ea8 b7bd 5e78 d33d 8393 dd3d 5321 6fbd
000002f0: aec9 343d f40f e83a 0b1e 733d 8cac debc
00000300: 4c30 fc3d 1e0c 03bd f5b0 b03b c3c0 b63d
00000310: bb44 95bd a5bc 863d 265b 523a f732 8d3d
00000320: 3065 4fbc 5d4a debd 8395 a33d 6ed0 86bc
00000330: 38b3 babd 4fa7 1f3e d30a 8fbd b895 7dbd
00000340: 9a67 033d 032c 5c3d 8efe dbbd 6d22 c33d
00000350: 0114 aabd 7185 4cbd 81c1 9c3d ba07 6fbe
00000360: 56f6 b63c 5bc2 76bd 679e 7ebd 1415 72bc
00000370: 9d3d 2fbc 3a0a 07bd fdf0 b73c 62fd c6bc
00000380: 7f33 dd3c 8530 61bd 53d7 b8bc 41a2 78bc
00000390: 6e4a 06be 311f 983b 9ed4 41bd dc76 f8bd
000003a0: 9421 243d dadd 61bd 6dea 863c eaae 91bc
000003b0: 3366 053d c10b ed3c 8acc a63a d23f 26bd
000003c0: 63f9 00bc 4b31 ae3d 67d5 cebc 8b02 d93c
000003d0: d68c 643d a0db d23c 3731 1abd ad14 b43c
000003e0: 96f9 52bd 379e 693d 591a 983d ab0a 2abd
000003f0: 2710 a6bd 3930 d33c 3fa2 cbba c6a2 7cbd
0.055342816 -0.05624229 0.025300914 0.049351025 -0.038093455 0.12683074 0.05111062 -0.063015595
0.06385385 0.050179876 0.007117656 0.003410569 -0.057918053 -0.09141728 -0.0799268 -0.04371052
0.07473608 -0.012974247 -0.075811334 0.08754785 -0.11195066 0.011880215 -0.00042375267 0.0037807554
0.026495866 -0.038536884 0.05992864 -0.08322301 0.04640076 -0.069974795 0.0016342022 0.033931382
-0.05204402 -0.03632342 0.06474494 0.029483046 -0.022232424 0.09306468 -0.03525748 -0.0079116905
0.0803883 -0.045718163 -0.05584677 -0.028158814 -0.047675073 -0.06496859 0.030900152 0.0051379954
-0.053601824 0.015307183 -0.01223731 -0.019383088 0.032048482 -0.04275604 -0.0080798045 -0.12839112
-0.022114769 0.019196419 -0.0516665 -0.01563811 -0.015773805 -0.057528198 -0.023889877 0.0873117
-0.08905648 0.09931714 0.00715309 -0.13090289 0.042821605 0.011274253 0.024172498 0.015491965
0.059167016 0.0056011546 -0.039196007 0.0024364516 0.048884578 -0.041989397 0.011029068 0.038333915
-0.045168526 0.064832024 -0.17949475 0.07217684 -0.050423354 -0.19241063 0.065841325 -0.071191445
-0.049234394 0.06356777 0.06019347 0.061232 0.004336915 -0.037715983 0.007547535 -0.01764016
0.04734622 0.010417074 0.016550567 0.016219547 -0.004725845 -0.04762054 -0.056267384 -0.027561804
0.053585634 -0.045998793 0.0066555226 -0.010297643 -0.11522076 -0.042270303 0.10513783 -0.06987699
0.04378269 0.044423338 -0.14201051 -0.061946966 0.0312016 -0.122855574 0.22608796 -0.07625921
-0.131283 0.19639136 -0.0898488 -0.043623332 0.12352873 -0.05394521 -0.022351485 -0.09367833
-0.13210389 0.037506424 -0.05582633 -0.06948766 -0.046580892 -0.11607008 -0.07515027 0.0042809206
-0.19951239 0.0221587 -0.06471712 -0.003738265 0.0129238255 -0.08129939 0.038799975 -0.06821165
0.09278268 -0.16515708 0.042573836 0.105348274 -0.16821584 0.08792528 -0.012552892 -0.061326314
0.062222406 0.08301887 -0.014789533 0.0020033394 0.15534063 -0.17169699 -0.0055310987 0.08459943
-0.03554041 0.09704932 -0.041385453 -0.040705167 0.02764033 -0.050342765 -0.02331076 -0.09601654
0.018760374 0.07678641 -0.10244458 -0.24541497 -0.058381896 -0.102728486 -0.10511888 -0.049858052
-0.13181552 -0.13916072 -0.12089012 -0.15235512 0.064321294 0.011630802 0.015015341 0.04029806
-0.08967708 0.103256926 0.10819151 -0.05838139 0.04413765 0.001770495 0.059354823 -0.027181886
0.123138994 -0.031993978 0.0053921887 0.08923485 -0.072885 0.0657895 0.00080244464 0.068944864
-0.012658402 -0.108540274 0.079875015 -0.016456809 -0.091162145 0.15591167 -0.069844864 -0.06191036
0.032081224 0.05375291 -0.10741912 0.095280506 -0.08304597 -0.049931947 0.076540954 -0.23342791
0.022334259 -0.060243946 -0.062162783 -0.014775533 -0.010695842 -0.032968737 0.02245378 -0.024290744
0.027002094 -0.054977912 -0.022563612 -0.015175403 -0.1311433 0.00464239 -0.04732191 -0.121320456
0.040071085 -0.055143215 0.016469205 -0.0177836 0.032568168 0.028936269 0.0012725752 -0.040588208
-0.007871958 0.08505496 -0.025248243 0.02649047 0.055798374 0.025739491 -0.03764459 0.021982515
-0.051507555 0.05703565 0.074269004 -0.04151408 -0.081085496 0.02577983 -0.0015536024 -0.06167867

conv2.0.bias f4 [32]
00000000: 680b 043d 78f0 0cbd cb1e 0e3d 9d71 0ebd
00000010: f71b 09bd c305 d0bb 8a51 893c 25af 1a3d
00000020: 6d5a 46bd 51bc 2e3d 63c9 59bc aa49 0d3d
00000030: 0a25 943c 81b4 333d 6605 babc 3a0c 07bd
00000040: 3a30 173c fdc8 47bd a24f f03c 280f 4ebd
00000050: 131a fc3c fc0f 41bd 5d18 65bd 04ee ff3c
00000060: 9a6d fc3c a8dd b53b 146f 52bd e79b 673d
00000070: e872 e13c b7c6 f2bc 403a 1abd 0361 a6bc
0.03223744 -0.034409016 0.034697335 -0.03477632 -0.033473935 -0.006348343 0.016762514 0.037764687
-0.04842608 0.04266006 -0.013292643 0.03449408 0.018084068 0.043873314 -0.022707652 -0.032970645
0.009227807 -0.04877566 0.029334847 -0.050307423 0.030774152 -0.047134385 -0.055931438 0.031241424
0.03081398 0.005550105 -0.051375464 0.056545164 0.027520612 -0.02963577 -0.037653208 -0.02030993

conv2.1.weight f4 [32]
00000000: e270 7d3f 5b82 7f3f 1ffe 813f 1635 5a3f
00000010: 0b99 823f e07d 733f 794a 623f 618a 6d3f
00000020: d900 833f f138 713f 32a6 613f bcb9 6a3f
00000030: 06f2 7c3f 3aca 723f 5dbe 873f 686a 7b3f
00000040: 9b16 773f b848 773f 555f 7a3f 01a3 733f
00000050: e146 813f 782e 903f 7726 6a3f be9a 803f
00000060: c3b4 633f 8829 823f d504 773f 4632 7e3f
00000070: 1a13 7f3f 609d 863f 0143 833f 6c87 933f
0.9900037 0.9980828 1.0155677 0.8523725 1.0202955 0.95113945 0.88394886 0.92789274
1.0234634 0.9422751 0.8814422 0.9168966 0.988068 0.94839823 1.0604969 0.9820924
0.9651887 0.96595335 0.97801715 0.951706 1.0099756 1.1264181 0.9146494 1.0047224
0.88947695 1.0168924 0.9649175 0.9929546 0.9963852 1.0516777 1.0254823 1.1525702

conv2.1.bias f4 [32]
00000000: 5c1e 1fbe d0e9 82be f4f3 82be 2025 8dbe
00000010: 5f7a 3ebe ca43 1fbe afe9 86be 30d7 92be
00000020: c653 6bbe 7bf7 ecbe 27d7 4fbe ad86 b3be
00000030: 138a 0dbe 6dab d7bd fd2c 54be 3edd 07be
00000040: 269d f5bd 7f3c 95be b688 14be 409d 69be
00000050: 1763 b0be f41c 58be 1e7a 73be 3a3c 1cbe
00000060: b833 2ebe edc7 1dbe bada e2bd c22d 92be
00000070: 8eac efbe 638e 81be 518d 5cbe 9a07 e3be
-0.15538925 -0.2556901 -0.25576746 -0.27567387 -0.18601368 -0.15553203 -0.2635016 -0.286798
-0.22981176 -0.46282563 -0.20296918 -0.35063687 -0.13822202 -0.10530744 -0.20720287 -0.13267991
-0.11992864 -0.29147717 -0.14505276 -0.22813892 -0.344506 -0.21104795 -0.23777053 -0.1525735
-0.17011917 -0.15408297 -0.11076875 -0.28550535 -0.46811336 -0.25303945 -0.21538283 -0.44341737

conv2.1.running_mean f4 [32]
00000000: 4e3f 88bf b6d4 02bf 1704 fb3d 66b1 b1bf
00000010: 656c e8bf bf54 4740 a9c0 3bbe ee24 efbe
00000020: 2270 c7bf 7f4f d9be 52e5 98bf baa0 acbf
00000030: a934 c1bf f7b2 323f 5ab4 2ebf 5867 9ebe
00000040: 2c0c bfbe 62a5 4abe 08e4 aabf 4a73 8d3f
00000050: d2d5 67bf 7ff0 13bf fc27 88bf 41a9 2c3e
00000060: 44b2 25bf bc00 00c0 e0fd 00c0 9683 6a3e
00000070: 9347 45bf 4e26 34bf 8d72 49bf b6c3 81be
-1.0644319 -0.5110582 0.122566395 -1.3882263 -1.8158079 3.1145475 -0.18335213 -0.46707863
-1.5581095 -0.42443463 -1.1944983 -1.348655 -1.5094196 0.6980433 -0.68243945 -0.3093822
-0.37313974 -0.19789651 -1.335084 1.1050808 -0.9056064 -0.5778884 -1.0637202 0.1686144
-0.64725137 -2.0000448 -2.0154953 0.22901759 -0.7706234 -0.7037095 -0.78690416 -0.25344628

conv2.1.running_var f4 [32]
00000000: 01fb 1540 bc52 c43f 1285 833f 17d6 1b40
00000010: 470e 3940 5903 2940 863f f23f fa40 e83f
00000020: c380 0140 5f28 c63f fe5e 4c40 abb0 3040
00000030: 365a 4140 85df 2340 bb93 b03f 60fd 0540
00000040: fe5d a83f 7c32 0840 f5c9 3040 a9b2 a03f
00000050: 1008 5e40 6db6 6240 b2e3 c63f 02c4 5a40
00000060: 2f63 0c40 ee1c 3b40 0c7c 2a40 9463 463f
00000070: f7fb eb3f 7673 cd3f ad99 f03f ba43 bd3f
2.343445 1.5337749 1.0274985 2.434942 2.8914964 2.6408293 1.8925636 1.8144829
2.023484 1.548107 3.1932979 2.760783 3.021131 2.5605175 1.3795084 2.0935898
1.3153684 2.1280813 2.7623265 1.2554523 3.469242 3.5423844 1.5538237 3.4182134
2.1935537 2.9236407 2.6638212 0.77495694 1.8436269 1.6050861 1.8796898 1.4786294

conv3.0.weight f4 [64, 32, 3, 3]
00000000: fa82 b2bb 962c 3f3d 1808 b23c f2d8 89bc
00000010: 5cd0 81bd 53d0 4a3d b53d f4bc 5967 96bd
00000020: 929f 173c e0de a8bd 32ce aabd 949b c9bd
00000030: f6c5 dabc e224 b1bd 54d6 1bbe 3800 b13d
00000040: 24a5 b7bd 90a3 cabd 6831 debd 180d a6bd
00000050: 8e63 48bc 9cf3 a9bd 5e63 0dbd cc04 133d
00000060: b8a7 56be 1cf2 f1bd 5b49 5f3c a466 3cbd
00000070: 7f85 963c bb08 7c3d fd6a 50bd 8af9 8e3c
00000080: 0873 c23c df4f 3abe 21a0 e4bc 01ed 9bbb
00000090: f2b2 5ebd 8c3f 693d 8849 68bd 9b7b 1ebc
000000a0: 21f7 4f3d 78f0 ef3b 687f 87bd e8c3 39bd
000000b0: 34ef 7e3c db1d 66bd ea1c 64bd cf6d 963d
000000c0: f5f2 1fbe 75fd 9dbd c39e 5b3d 04ef d3bd
000000d0: 49b2 d1bd f750 8bbc 166f 863d 8d9c 643d
000000e0: df5e 463c 11ba 333b e949 f73d 11e0 033e
000000f0: cfa6 76bd cf01 0a3c d94e 8f3d 35ee f6bd
00000100: 8876 19bd c3ed 7bbd 3970 9fbd 54bb 8ebd
00000110: 501f 373d 6e80 2cbe 7d7a 0ebe 7b01 323d
00000120: 438d c83d 7a64 1b3d 9de0 0ebd 58e0 b83d
00000130: 7d8f 8b3c aad5 5a3c d866 723d 012a d13a
00000140: 4a19 62bd 846a 5b3d 0533 2d3d 695a 803c
00000150: 783d c5bc 75fb 5ebd a36b 1fbd 51ff 49bc
00000160: a940 c1bd b0e0 7dbc 1746 dcbd 5ff0 92bd
00000170: 9a4d f9bb 8911 2c3a b5ad d43d 634d ba3d
00000180: a2bb 333d 5b62 863c ecef 51bd 2f35 c23d
00000190: e430 2b3d b033 243d 1d09 083e 7b0f 143e
000001a0: 44c5 103d 7f2f 663d edb9 ef3d cfbe af3d
000001b0: 7964 933d f3f7 49bc dd02 b0bd cdfb 293e
000001c0: 6d8c 573d 5836 13be 002b cb3d a1d5 103e
000001d0: 8ddb eabc 41c9 cfbc 138a e83c f24b 0f3c
000001e0: 4d9e 00bd 6d56 61bc 9edb a9bd da39 39bd
000001f0: bf0f 0bbd b7d7 95bd a16d 873b c08e 71bd
00000200: e305 d1bd 4c9b d4bb 192f 56bd 7140 51be
00000210: d216 103d 66a2 ac3d b6d1 5cbd 9de2 abbd
00000220: d209 173c 7517 3a3c 09bf e4bd 885f 27bb
00000230: ae3e 51bd 9403 59bd bf69 2b3d 3d1a ac3d
00000240: cdbd 78bd a285 143b a685 ecbc ec8f bebd
00000250: bf87 6ebd 0356 b93d 69ef a9bd 9c64 f6bb
00000260: 796c de3c 0b92 ffbd 938b a5bd 6d8a 2c3d
00000270: 2a8b 53be a007 fc3c 097e 103e 1d43 1dbd
00000280: 535e 88bd 1830 c73d 7051 a3bd ff03 8c3c
00000290: 966f 913c ada5 2cbe a3ce 70bd cf3c 12bd
000002a0: 6575 fdbd 0dfd 2cbe 2925 e8bc 9501 313c
000002b0: 6d20 46bd c9fc 26bd a958 033c fadc 85bd
000002c0: d939 b4bd d2ad 0f3d a682 babc 50a5 afbd
000002d0: e8dc 9cbc e90d 893d dcb3 ce3b adee 053d
000002e0: 663e 3c3c 4372 0e3e b104 dbbc db0a 81bd
000002f0: e7fd 7e3d 60d7 bc3c 3e72 46bd 3283 163d
00000300: a943 aebc f37d 263d f575 2f3d 382a b5bd
00000310: e51c d2bc e62d 8f3d d250 063b 5c42 6abd
00000320: 70e6 30bd 83f1 773d 1e00 473d 2333 6bbc
00000330: e9a2 db3c 32dd 0fbd 6fbc 86bd 9a43 cdbc
00000340: 5c04 793d 741b b53d e44b 98bd 603e 583d
00000350: 3073 2e3e e063 eabc a9af 0c3d c849 053e
00000360: ca49 e33d 3984 9e3c 16c0 443c eb13 8f3d
00000370: 4560 abbc 8155 6bbd 93c6 b83d 1640 243e
00000380: 196c 1a3e 5a47 26bd 32da f7bd 7ecd 0ebe
00000390: ec41 c73d ab66 0c3d be9b e63b 90f7 3ebd
000003a0: e74f 4a3d d1b1 053e e4c1 3dbd 4738 503b
000003b0: 6412 26bc 93b6 053d e537 193c caaa 65bc
000003c0: 69f0 54bd 37e2 96bd c9f3 d1bc 4e42 293c
000003d0: f46a 903d 6194 8d3c 19fe 163d 3dbb c5bc
000003e0: 40a4 fa3c 1dcf 14bd ab38 93bd 18fd f83c
000003f0: 04e1 d43d 2ad1 8f3d 0710 e73d fcf2 fbbb
-0.0054477425 0.04667338 0.021732375 -0.01682708 -0.063385695 0.04951508 -0.02981458 -0.07343931
0.009254353 -0.08245635 -0.0834011 -0.09844127 -0.026705723 -0.08649613 -0.15218478 0.0864262
-0.08967045 -0.09894478 -0.10849267 -0.08107966 -0.012230767 -0.08298418 -0.034518592 0.035893247
-0.20962417 -0.11813757 0.013628329 -0.045996323 0.018374203 0.061531764 -0.050883282 0.017452974
0.023736492 -0.18194531 -0.027908387 -0.0047584777 -0.054369874 0.05694537 -0.05671075 -0.0096730245
0.05077279 0.0073223673 -0.06616098 -0.045352846 0.01555996 -0.056180816 -0.055691637 0.07345163
-0.15620025 -0.07714359 0.053618204 -0.10348323 -0.10239083 -0.01700638 0.06564157 0.05581336
0.01210758 0.0027424137 0.12074644 0.12878443 -0.060217675 0.008423283 0.06997461 -0.12057153
-0.037466556 -0.061506044 -0.07785077 -0.06969324 0.044707596 -0.16845867 -0.13913913 0.043458443
0.097925685 0.03793762 -0.034882177 0.09027165 0.017036194 0.013356606 0.05918011 0.0015957953
-0.0551999 0.053568378 0.042284984 0.01566811 -0.024077162 -0.054439027 -0.03892101 -0.012328939
-0.09436161 -0.015495464 -0.10755556 -0.071747534 -0.007608128 0.0006563892 0.103846945 0.090967916
0.043880112 0.016404321 -0.051254198 0.094828 0.041794673 0.040088356 0.13284726 0.1445903
0.035344377 0.05619764 0.117053844 0.08581316 0.07196898 -0.012327182 -0.08594296 0.1659996
0.052624155 -0.14376199 0.09920311 0.14143993 -0.028669143 -0.02536452 0.028386151 0.008746134
-0.031400967 -0.013753516 -0.08293842 -0.045221187 -0.033950564 -0.07316535 0.004132942 -0.058974028
-0.10206201 -0.0064882394 -0.05229101 -0.20434739 0.035178013 0.084294125 -0.053910933 -0.083928324
0.00921865 0.011358132 -0.111692496 -0.0025539119 -0.051085167 -0.052981928 0.041848894 0.08403442
-0.060727883 0.002266266 -0.028872322 -0.09304795 -0.058234926 0.090496086 -0.08297617 -0.007519318
0.027151333 -0.12479027 -0.08083262 0.0421242 -0.20658556 0.030765355 0.14110579 -0.038394082
-0.06658616 0.0972597 -0.07974517 0.01709175 0.017753404 -0.16860075 -0.058790814 -0.035702523
-0.12375907 -0.16893406 -0.028338032 0.0108036 -0.048370767 -0.04076842 0.008016744 -0.065362886
-0.08800096 0.035077877 -0.022767376 -0.08576453 -0.019148305 0.06692106 0.006308062 0.032698322
0.011489486 0.13910775 -0.026735635 -0.06300899 0.06225386 0.023051918 -0.048448794 0.03674621
-0.021272497 0.04064746 0.042837102 -0.08845943 -0.025648544 0.06991176 0.002049495 -0.05719219
-0.043188512 0.060533058 0.048584096 -0.014355454 0.02681108 -0.035123058 -0.065789096 -0.025056649
0.060795173 0.08843127 -0.0743635 0.05279386 0.17036128 -0.028612077 0.03434721 0.13016427
0.110980585 0.019350158 0.0120086875 0.06986221 -0.020919928 -0.05745459 0.0902225 0.16040072
0.15080298 -0.04059539 -0.12102164 -0.13945577 0.097293705 0.0342776 0.007037609 -0.046622813
0.049392607 0.13056113 -0.046327487 0.0031771825 -0.010136221 0.03264482 0.009351705 -0.01401777
-0.051987085 -0.07367366 -0.025628941 0.01033075 0.0705165 0.017282667 0.03686342 -0.024137134
0.030595899 -0.03633033 -0.07188543 0.030394122 0.10394481 0.07022317 0.11282354 -0.007688878

conv3.0.bias f4 [64]
00000000: 2e09 12bc 889e 25bb 4d16 bf3b 32e5 e6bb
00000010: c031 003d f7f4 24bd 79e3 a7bc 3245 413d
00000020: e71c a4bc 3973 093d 1297 143d 8dc4 d33c
00000030: c86a 3c3d e34c 46bd 8362 9dbb 2d47 b93c
00000040: e325 27bd d6c8 95bc 0a4b 013c e09c 00bd
00000050: 21a9 ed3c 7675 bebb 7b96 58bc d26e 0f3d
00000060: 200d 12bc 0a7f 45bd c663 3d3d ae87 1cbd
00000070: 44b0 2c3d 14bc 253d ad2b 013c 59bc dd39
00000080: b754 6d3d 7f80 cb3c bbf0 4fbd 542c fbbb
00000090: b119 023d 760d a1bc 2e4f 083d 9f07 ea3c
000000a0: d4e1 053d 5f66 c9bc 21d4 4a3d 9aa9 33bd
000000b0: d57e 4d3c dd07 c03c 32f5 5e3c 8144 4cbd
000000c0: f5c3 a73c 4b34 c5bc 4b96 b3bc ffd0 17bc
000000d0: d393 0abd 5907 91bb bffc 9b3c 8e0d 843c
000000e0: d69a d7bc 6059 cd3b e1e6 403c 8b48 613c
000000f0: 6800 b43b 1ef4 43bd efe2 52bd bcc1 1a3d
-0.008913321 -0.0025271494 0.005831516 -0.007046365 0.031297445 -0.04027268 -0.02049421 0.04718513
-0.020033313 0.03355715 0.036276884 0.025850559 0.046000272 -0.04841317 -0.0048030033 0.022616947
-0.040807616 -0.018284243 0.007891426 -0.031399608 0.029011311 -0.0058123423 -0.013219471 0.035017796
-0.008914262 -0.048216857 0.04623773 -0.03821533 0.042160287 0.04046257 0.007883948 0.00042292735
0.05794212 0.024841545 -0.050766688 -0.0076651964 0.031762782 -0.019659739 0.033278637 0.028568087
0.03268607 -0.024584947 0.04951871 -0.043862917 0.012542446 0.02344125 0.013608264 -0.049870018
0.020479182 -0.024072787 -0.021922251 -0.009266137 -0.033832382 -0.0044259247 0.019041417 0.016119745
-0.026318949 0.006266758 0.011773796 0.013750206 0.0054932125 -0.04784023 -0.051485952 0.037782416

conv3.1.weight f4 [64]
00000000: 8a17 803f b76a 643f ad42 873f fda3 723f
00000010: 6352 7b3f 8cf2 7e3f 815f 8c3f 406a 713f
00000020: 6b9c 8f3f 5e61 803f 3df4 7e3f 502f 7f3f
00000030: 9363 763f 95ba 923f 5bff 783f e267 813f
00000040: aeaf 723f f4cb 783f 2b76 723f b3b4 5f3f
00000050: 82eb 803f 657b 763f fea2 7f3f 044d 583f
00000060: 34e2 673f 8fa7 843f 76c3 6f3f 828c 923f
00000070: 1be3 763f ccb0 723f 12c7 8b3f c498 703f
00000080: 6249 6e3f 510f 7c3f bd9f 753f 502d 863f
00000090: cee0 7e3f d4b9 763f bf38 773f bf33 7b3f
000000a0: 5e07 693f 058a 723f 35c2 6f3f 9a6b 683f
000000b0: 45b2 793f 9a13 7f3f 83c7 923f 99b6 7a3f
000000c0: d929 7d3f 2571 853f 1c58 823f aaad 763f
000000d0: 0ef8 863f aab2 7b3f 58d8 7f3f 6d2f 813f
000000e0: 9836 753f d16b 8f3f 5a12 6b3f 432a 703f
000000f0: 910f 843f 32e2 623f 69a8 743f 3fb5 6f3f
1.0007184 0.89225334 1.0567223 0.94781476 0.9817259 0.9958885 1.0966645 0.9430275
1.121961 1.0029714 0.9959143 0.9968157 0.9624569 1.146319 0.9726464 1.0109828
0.94799316 0.9718621 0.9471156 0.873851 1.0071871 0.96282035 0.9985808 0.84492517
0.90579534 1.0363635 0.93657625 1.144913 0.96440285 0.9480102 1.0920126 0.939831
0.93080723 0.9846087 0.95946866 1.0482578 0.99561775 0.963773 0.9657096 0.98125833
0.91026866 0.9474185 0.9365571 0.90789187 0.9753764 0.99639285 1.1467136 0.9793487
0.9889198 1.0425154 1.0183139 0.9635874 1.054445 0.98319495 0.9993949 1.0092598
0.9578643 1.1204778 0.9182488 0.93814486 1.031725 0.88626397 0.95569474 0.93635935

conv3.1.bias f4 [64]
00000000: e754 99be cf87 4ebe b7ef 8abe c6cd 1dbe
00000010: 3690 3ebe 4f75 79be 278c 87be be97 0bbe
00000020: f0fe babe 330c 47be 35e7 2ebe 9d8d 7abe
00000030: ca51 9abe 976e 6cbe 74db 4dbe 77fe a5bd
00000040: 6155 31be f69f bbbd 7698 56be 0226 b2be
00000050: f729 55be 34ab 90be 2c1f 33be 4d98 15be
00000060: 4738 60be 77eb 53bd 04c0 51be a01f 40be
00000070: d50d 35be c74c 2bbe 972b 88be 6da7 15be
00000080: 6d51 51be ec89 3abe 4f38 51be ee88 1cbe
00000090: eba3 0cbe c692 85be 9ff1 e0bd 27d7 55be
000000a0: 46f1 aabd e35a 81bd e61f 04be d25f 45be
000000b0: 23f9 eebd f84c 6abe c4eb 9dbe 974b 5fbe
000000c0: cbca 5cbe a13a 93bd 2f56 75bd d16f b6bd
000000d0: 083b 2bbe 86f9 4abe 46a5 d6bd 26d8 b1be
000000e0: a61b 1dbe bfe3 8ebe 7a5e 8bbe 6037 31be
000000f0: b19f bbbc c382 1fbe 385e 20be 5087 37be
-0.29947588 -0.20168994 -0.27136013 -0.15410528 -0.186097 -0.24361156 -0.26474115 -0.13632104
-0.36522627 -0.19438247 -0.17080386 -0.24468084 -0.30140525 -0.23089062 -0.20103246 -0.08105176
-0.17317726 -0.091613695 -0.20956597 -0.34794623 -0.2081679 -0.28255618 -0.1749236 -0.1460888
-0.21896468 -0.05173823 -0.20483404 -0.18762064 -0.17681058 -0.16728507 -0.26595756 -0.14614649
-0.20441218 -0.18216676 -0.20431636 -0.1528661 -0.13734405 -0.26088542 -0.109835856 -0.20882855
-0.083468005 -0.063161634 -0.12902793 -0.19274834 -0.11668613 -0.22880924 -0.30843937 -0.21806179
-0.21561734 -0.07188917 -0.059896644 -0.08908046 -0.16721737 -0.19821748 -0.10480742 -0.3473522
-0.15342578 -0.2790813 -0.27220517 -0.1730628 -0.022903295 -0.15577225 -0.15660942 -0.17922711

conv3.1.running_mean f4 [64]
00000000: b60f 8abf aa08 3340 0d72 c03e f981 64c0
00000010: 63e9 f9bf a8fc 2ac0 26b5 12bf c565 b9be
00000020: b274 61bf 7e05 cebf f61b 81bf 222f aebf
00000030: f76a 06c0 d79c 77bf 8688 f9be 0b96 993f
00000040: 3684 95bf 4090 d73f 47a0 05c0 4cce 3140
00000050: 56df 85bf 4147 7f3e ca05 d9bf 6f63 853f
00000060: 1c94 ffbf 2503 123f ebd1 863f 22ac b33e
00000070: ad67 973d f1a2 5840 f9ca be3f 1bf2 0b3f
00000080: a9de cd3f ac1a 893f ec6f bbbe be6b 22bf
00000090: a5ea 473e a9ff b43e 3e3a 923f e40c e73f
000000a0: aef1 57c0 99eb 023f f838 f83d f080 e23f
000000b0: 550f 3840 0517 25be 53c9 8ebf 654f 3fbf
000000c0: 4353 4c3f f5d9 b3bf de70 0e40 d3ea 01c0
000000d0: 72bf b13f 1ee8 47c0 68a8 19c0 d809 8dbf
000000e0: 9a29 913e 1cce cabf 7568 91c0 9a9b f33e
000000f0: 47eb 70bf e253 1ac0 0c45 72c0 71bb 4dc0
-1.0786045 2.7974038 0.37587014 -3.570433 -1.9524349 -2.671671 -0.5730766 -0.36210456
-0.8806869 -1.6095426 -1.0086658 -1.3608134 -2.1002786 -0.96723694 -0.48736972 1.1998914
-1.1680973 1.6840897 -2.0879076 2.7782164 -1.0458782 0.24929525 -1.6954892 1.042097
-1.9967074 0.5703605 1.0532812 0.35092264 0.073928215 3.3849452 1.4905692 0.546663
1.6083575 1.0711265 -0.36608827 -0.6344565 0.19523104 0.35351303 1.1424024 1.8050809
-3.374126 0.51140743 0.12120241 1.7695599 2.8759358 -0.16122063 -1.1155189 -0.7473052
0.7981455 -1.405089 2.2256389 -2.0299575 1.388655 -3.1235423 -2.4009037 -1.1018629
0.28352052 -1.584415 -4.544001 0.47579652 -0.94109005 -2.4113698 -3.7854643 -3.2145655

conv3.1.running_var f4 [64]
00000000: c031 b03f 1247 3440 0871 793f 5bcd 6140
00000010: f2f6 5640 fffb d03f a2cf bd3f 708e 1e40
00000020: 61fa 0640 aedd af3f 55ef d83f 7e6d 2140
00000030: d873 a73f 10b5 a63f 1dc1 0040 bc2c 3c40
00000040: c1f5 2e40 f358 2c40 9b12 0040 785d 1440
00000050: 0673 f83f 5e6a 9d3f ea67 f73f 0b75 c63f
00000060: cf72 f63f 118c 2640 a194 f53f d042 923f
00000070: 1a1d 1840 ac7a 8140 5ad4 9d3f cd02 0a40
00000080: 6f72 0440 f78f ca3f 041d a13f 6f13 0f40
00000090: 5900 e13f 1f74 d03f d8f6 0c40 dac2 0740
000000a0: 7474 0b40 8803 2740 a776 0040 ec67 ec3f
000000b0: bfc8 0340 ef92 0040 8037 0040 48b0 c53f
000000c0: ecbd c23f e2e0 1a40 ef01 cb3f 3edd 1640
000000d0: 84be d33f 1402 8440 1225 9840 525d 913f
000000e0: 6bf1 3240 a5ff df3f 9e47 7940 dcfa d93f
000000f0: 5652 8140 7eed 6d40 6ef7 7c40 4399 1640
1.3765182 2.8168378 0.97438097 3.528159 3.3588223 1.6326903 1.482899 2.4774437
2.109032 1.3739526 1.6948038 2.5223079 1.3082228 1.3024006 2.0117867 2.9402304
2.7337496 2.692929 2.0011356 2.3182049 1.9410102 1.2298086 1.9328587 1.5504469
1.9253787 2.602299 1.9185983 1.142664 2.3767762 4.0462246 1.233043 2.156421
2.0694845 1.5825185 1.258698 2.2355611 1.7578231 1.6285437 2.2025661 2.1212678
2.1789827 2.6095905 2.007242 1.8469214 2.0591276 2.008968 2.0033875 1.5444422
1.521421 2.4199758 1.5859965 2.3572536 1.6542516 4.1252537 4.754525 1.1356604
2.795985 1.7499892 3.8949962 1.7029681 4.041301 3.7176204 3.952602 2.3531044

conv4.0.weight f4 [64, 64, 3, 3]
00000000: f1d8 73be eac5 97bd b405 0abd 88e3 2fbe
00000010: 87e9 643b ff5d 99bc 63ef 46be 3f1c dcbd
00000020: 7c57 f0bd 5d40 453d 32ad 8b3c 2d94 93bc
00000030: 5e75 333d bc02 7cbc 99a9 aabd 35db cd3c
00000040: 03e0 ef3c 21d7 923b 675c 403e 554a 263d
00000050: d603 083e d4d5 e23d 6d57 333d 73bd 823d
00000060: 322e 5d3e f11d 043e 6dcb 2c3e a373 ffbc
00000070: f009 3bbd 0359 15bd 6ebc 1bbd 314c 4cbd
00000080: 8bde 6ebd 4a48 cdbc 590a 1ebd 0bd5 d739
00000090: 9abe 2ebd 049b ef3b ce44 493b b3e0 18bd
000000a0: 99ec 003d 28a4 913c 76b6 003d 7341 d0bc
000000b0: 35e7 89bc c339 393d 2e56 2c3d 645a 003e
000000c0: efe1 c03d 26f1 923d bfaf 023e 2950 383e
000000d0: e902 e13d ff84 333e d35a f53c f72c 273c
000000e0: d928 1cbd e69a a03d fbf9 113d c02d a13b
000000f0: 15da b73d 7bd8 d3bb 084b dd3c 2ea5 e13c
00000100: 9c83 b0bc 9317 013d e0c6 c63c df54 44bd
00000110: 3097 843c 4c26 383d cef2 c73c 5445 833d
00000120: ec05 b3bb e381 e33c 2d6e 523c 1725 45bc
00000130: 3ca0 8f3b 0a6c c43b 724c 493b bc72 943c
00000140: 1498 803d 46ee a53c 3dd2 7fbd ceaa 24bd
00000150: b796 f83c 8afe 99bd 9b7b d2bc 83fa a63c
00000160: 1e01 04bd be85 283d b9a6 4bbd 36ec 73bc
00000170: 38b5 c6bc dfeb eebb f389 bfbd d56c 6738
00000180: 873f 793b d788 243d d463 953d a65d 1bbd
00000190: dc0a 1cbd de3f e2bd 69a6 debb 1dd4 41bd
000001a0: b565 b6bd a021 193d 24d8 85bc 55e9 aebd
000001b0: 73ce d3bc 75a8 a33c a571 5e3d fbe4 133d
000001c0: 5275 ce3c 77c7 a13c 808d 76bd 10f4 b03b
000001d0: 9167 c63b d8fa 35be 049d 24be 595a 97be
000001e0: e26e 0ebe b7b0 d5bd 5a80 4ebe 1e54 41be
000001f0: a399 f0bd ce87 49be 08d4 1a3d df9d 943d
00000200: ca46 693d cea9 943d 4dac a13d a8db 493d
00000210: b6d0 d03c f9be 673c 3190 933d 722a 7abd
00000220: 1f2d 0cbe 8245 14be 333d 90bd ff6a e6bd
00000230: 83c5 0dbe 7551 f9bd 8d07 08be c161 a4bd
00000240: 6b28 8cbd 59fc 36bd 4859 16bd 0f86 e33b
00000250: 9a7b a2bd 1832 a2bc 3334 06bd 32b9 90bd
00000260: d194 a0bd 40fe 1abe a8f0 34be 1d73 68be
00000270: af15 e0bd c525 22be 849c 0bbe 8dff 02be
00000280: 2a29 17be 81a7 2dbe 36df 143d 7d4b 1c3c
00000290: 67ea d93d 9246 8d3d 461b fd3c 9f81 833d
000002a0: ce90 813d e977 d1bc 3033 d03d 1986 1b3b
000002b0: ef4b e9bc 4608 3dbd 2658 18bc 2a77 603b
000002c0: 08bf 0cbb aaaf fbbc b4e9 d53b c082 93bc
000002d0: 0f0d 663b 5ae7 80bd 92bf 18bd a750 6b3c
000002e0: 79b2 9d3c 6465 da3c cf80 173c 9315 b73c
000002f0: bc42 7abc 9839 d6bc cb18 96bc d4a0 27bd
00000300: b391 023d 991f 4bbd 1561 333d 5e6e 41bd
00000310: 00f9 f0bc a033 f7bb 6521 2f3d 8515 1b3c
00000320: 5bd3 553d 1667 2e39 90b8 32bd 81cb 19bd
00000330: 5675 8e3c f16c fd3b 8a8a 8fbb 509d 04bd
00000340: 9e4f f33b e8fa 18bd 94d0 83bd 3525 50bc
00000350: 08bb 71bb 894c 923d e15b f0bb 7ad0 873d
00000360: 38f3 1f3d 6d32 de3a 0bed 393d 0b13 203d
00000370: a76d 4fbd a6ab 2f3d e930 073d c154 5e3d
00000380: 48ce b93d 1bc6 22be cba1 0cbe 21e2 28be
00000390: b433 e5bd 8c21 d5bd 94d0 06be e333 0fbe
000003a0: ba6b 05be ea30 21be 4aa9 a33b 00c0 ba3c
000003b0: 0899 dabc 7817 aabb c560 15bd c847 0abd
000003c0: 50e6 9c3d bdc9 ba39 89e7 4d3c 0969 9cbe
000003d0: aee4 64be a687 80be 8ad5 c4bd 451b 26bd
000003e0: 9061 40be 64a6 55be f842 58be 0e4f 8cbe
000003f0: ac23 4c3d e271 013d d9bf d63b 0f41 303d
-0.23813225 -0.07410796 -0.033696845 -0.1717664 0.0034929232 -0.018721579 -0.19427256 -0.10747575
-0.11735436 0.048157085 0.01705036 -0.018014992 0.043813102 -0.015381511 -0.083331294 0.02512894
0.029281622 0.004481212 0.18785249 0.040598232 0.13282713 0.11075941 0.043784548 0.06383791
0.21599653 0.12902047 0.16874476 -0.03118307 -0.045663774 -0.03646184 -0.038021497 -0.04987735
-0.058317702 -0.025058884 -0.038584087 0.00041166725 -0.04266224 0.0073121805 0.0030711177 -0.037323665
0.031475637 0.017778471 0.03142401 -0.025421834 -0.01683388 0.0452211 0.042074375 0.12534481
0.094180934 0.07174902 0.12762354 0.17999329 0.10986883 0.17531203 0.029950535 0.010203592
-0.038124893 0.078420445 0.03563879 0.004918784 0.08977143 -0.0064650155 0.027013317 0.027544584
-0.021547131 0.031516623 0.024264753 -0.047932502 0.016185373 0.044958398 0.02440777 0.06409708
-0.0054633524 0.027771896 0.012843651 -0.012032769 0.004383115 0.0059943246 0.003071573 0.018121116
0.062790066 0.02025522 -0.06245636 -0.040201955 0.030345304 -0.075192526 -0.025693705 0.020383125
-0.032227628 0.04114317 -0.049719546 -0.01488786 -0.024256334 -0.0072913016 -0.093524836 5.517605e-05
0.003803225 0.040169563 0.07294431 -0.037931107 -0.038096294 -0.11047338 -0.00679474 -0.047321428
-0.08906118 0.037385583 -0.016338415 -0.08540598 -0.025855279 0.019977788 0.0543076 0.036107045
0.025202427 0.019748433 -0.06019354 0.0054001883 0.0060548265 -0.1777147 -0.16075522 -0.29561117
-0.13909486 -0.10434096 -0.2016615 -0.18879744 -0.11748054 -0.19680712 0.037799865 0.07256674
0.056952275 0.0725895 0.07894192 0.049281746 0.025490146 0.0141446525 0.07205237 -0.061075635
-0.13689087 -0.1447964 -0.07042923 -0.11250877 -0.13844876 -0.1217374 -0.1328413 -0.080264576
-0.068436466 -0.04467425 -0.03670624 0.0069434713 -0.079337314 -0.019799277 -0.032764625 -0.07066573
-0.078408845 -0.15136051 -0.17669928 -0.22700162 -0.10941636 -0.1583472 -0.13633925 -0.12792797
-0.14761797 -0.16958429 0.036345683 0.009539482 0.10640412 0.06898226 0.030896794 0.06421208
0.063264474 -0.025569873 0.10166013 0.0023731051 -0.02847859 -0.04615047 -0.00929836 0.0034250715
-0.0021476168 -0.030723412 0.0065281037 -0.018006682 0.0035102998 -0.06294127 -0.03729207 0.014362491
0.019250141 0.026659675 0.009247019 0.022349155 -0.0152747 -0.02615051 -0.01832237 -0.040924862
0.03187723 -0.04959068 0.043793757 -0.047224395 -0.029415607 -0.007543996 0.042756457 0.00946558
0.052203517 0.00016632336 -0.043633044 -0.037547592 0.017389935 0.007733934 -0.004380529 -0.032376587
0.0074252626 -0.037348658 -0.064362675 -0.012704183 -0.003688516 0.07143504 -0.0073351716 0.066315606
0.03905031 0.0016952284 0.045392077 0.03908066 -0.050641682 0.042888306 0.03300563 0.054280046
0.09072548 -0.15895884 -0.13733594 -0.16492511 -0.11191502 -0.10406789 -0.13165504 -0.13984637
-0.13029376 -0.15741315 0.004994546 0.02279663 -0.0266843 -0.005190786 -0.03646924 -0.033759862
0.07661116 0.0003562699 0.012567409 -0.30548885 -0.2235286 -0.25103492 -0.09611042 -0.04055335
-0.18787217 -0.20864254 -0.21119297 -0.27404064 0.049838707 0.031602748 0.0065536317 0.043030795

conv4.0.bias f4 [64]
00000000: 030d febc 14a1 15bc 4543 28bd 09b6 193d
00000010: db70 c4bc 22f7 d8bc 5dc5 4e3a 02ea debc
00000020: 169e b3bb c89d 31bc e739 18bd 7181 343c
00000030: efda a3b8 b2bd a83c 103d 283d d592 da3a
00000040: 1fa5 8a3c 9e0e 4dba fbc7 1abd 2866 0f3d
00000050: 4cf1 d43c f511 143d 6e0c 19bd f031 cdbc
00000060: 540a 28bd 03a8 ba39 3f82 26bd ef89 8dbc
00000070: 46d6 16bd 9c92 e5bb 4ed5 50bc 55c0 5abc
00000080: 31dd 483b d80e b8bc 8c83 073d 8f90 3d3c
00000090: 4b35 843c beb3 0ebd 9037 e1bc 3501 cb3c
000000a0: 05f1 a43b 3324 88bc 81f7 21bd 6a19 983c
000000b0: 7408 18bd ae78 9abc ef04 233d 56cb e8bc
000000c0: 2c23 e5bc a085 aabc 46f8 99bc 070d 19bc
000000d0: 7bcb d83c 19a8 8a3c a84a 24bd 5457 803b
000000e0: 9968 823b eb42 1b3d 9c82 70ba a331 053c
000000f0: ee69 f1bc 7251 d13c 1ff2 71bc ebd3 01bd
-0.031012064 -0.009132642 -0.04107978 0.037527118 -0.023979595 -0.02648503 0.0007887686 -0.027211193
-0.005481492 -0.010840841 -0.037164595 0.011017189 -7.813225e-05 0.020598266 0.04107386 0.001667584
0.016924439 -0.00078223075 -0.037788372 0.035009533 0.025993966 0.036149938 -0.03736537 -0.025048226
-0.041025475 0.00035601863 -0.040651556 -0.017277686 -0.03682544 -0.0070060026 -0.012746168 -0.01335152
0.0030649418 -0.022468016 0.033084437 0.01157011 0.016138693 -0.034839384 -0.027492315 0.024780849
0.0050336146 -0.016618824 -0.03954268 0.018566806 -0.037117437 -0.018856373 0.039799627 -0.02841727
-0.027970873 -0.02081567 -0.018795144 -0.009341485 0.026464215 0.016925858 -0.04011026 0.0039166603
0.003979754 0.037905615 -0.0009174736 0.00812951 -0.029469457 0.025551531 -0.014767199 -0.03169624

conv4.1.weight f4 [64]
00000000: ec6b 7a3f dbab 813f 8247 803f a76b 853f
00000010: a613 813f de09 813f 8692 863f d9f1 833f
00000020: 255f 673f 0a31 843f 0fc1 6e3f fdc3 763f
00000030: 5f6f 753f b15c 853f b504 7c3f 844e 7c3f
00000040: a7dc 6d3f 766d 773f 25b6 813f 90c8 853f
00000050: e2c0 823f e051 7b3f 0f11 7d3f 26bc 7d3f
00000060: a7d5 763f 6407 873f e270 7f3f 395f 7d3f
00000070: 670a 803f bf42 853f 3c01 823f d514 843f
00000080: 45d0 733f 32af 773f d879 893f 1a56 8a3f
00000090: 7568 7a3f 6e71 773f 284f 5b3f a11f 6b3f
000000a0: 3903 793f f9a8 783f bea4 853f d06a 8a3f
000000b0: 0f35 733f 622f 793f 75e6 6e3f 6862 843f
000000c0: e8c9 7e3f efef 593f 6ce7 7c3f 94c5 743f
000000d0: 3578 7a3f 45d5 7a3f 2cb7 833f 3b79 803f
000000e0: 4a76 743f 4350 823f 9a57 813f 3312 743f
000000f0: 4ed1 7d3f d170 853f f45d 8a3f e5b1 763f
0.97820926 1.0130571 1.0021822 1.0423478 1.0084121 1.0081136 1.0513465 1.0308181
0.90379554 1.0327466 0.93263334 0.96392804 0.95873064 1.0418912 0.9844468 0.98557305
0.92914814 0.966514 1.0133711 1.0451832 1.0215113 0.98171806 0.98854154 0.99115217
0.9641976 1.054913 0.9978162 0.98973423 1.0003175 1.0410994 1.0156627 1.0318857
0.9523967 0.967517 1.0740309 1.0807526 0.9781564 0.96657455 0.8566766 0.91845137
0.9727054 0.9713283 1.04409 1.0813847 0.95002836 0.97337925 0.933204 1.0342531
0.99526834 0.85131735 0.9879062 0.9561398 0.9783967 0.97981673 1.0290275 1.0036997
0.95492995 1.0180744 1.0104859 0.9534027 0.991475 1.0425054 1.0809922 0.96365196

conv4.1.bias f4 [64]
00000000: 74ea 2dbe 1ee5 5dbe ac1f 22be 1e65 073c
00000010: 0c7b 4abe fa4a 31be 0194 93bd c21d ccbd
00000020: 59e8 5cbd 9029 c7bd 7d7f 3ebe 4550 03be
00000030: b73a 9bbd 3de1 7fbe 7e3c 17be 8d17 0dbe
00000040: 1160 6fbe c49e e8bc 890f f4bd 8444 eebd
00000050: d40b 72be 8f30 03be bc3f 42be 5e1e 2dbe
00000060: 04c7 25be ca77 f93c 8516 7dbd e4ae 58be
00000070: f7ef 6ebe cf8c 5dbe 1e74 fabd 6023 1bbe
00000080: 4325 2fbe 61d3 3fbe d9b8 88be aadc 2ebe
00000090: 718b 12bd c039 1dbe f939 93be 0488 07be
000000a0: 6efc bfbd f86b 4fbe d0b9 40be 02f7 83be
000000b0: 2218 dabd 55b4 32be adf0 d3bd 387a 15be
000000c0: 8b3e 06be 480d 14be 2352 debd 74df 7cbd
000000d0: 631e dfbc 7996 0dbe bf72 11be b013 48bd
000000e0: e3a1 47bd b269 02be d196 f2bd 25d9 a0bd
000000f0: 760d e4bd aa04 a0bd 512a 34be bb5d 31be
-0.16983968 -0.21669433 -0.15832394 0.008263854 -0.19773501 -0.17313758 -0.07205964 -0.09966613
-0.05393252 -0.09724724 -0.1860332 -0.12823589 -0.07579558 -0.24988265 -0.1476917 -0.13778515
-0.2337649 -0.028396018 -0.119170256 -0.11634162 -0.23637325 -0.12811492 -0.18969625 -0.16906115
-0.161892 0.030452628 -0.061789054 -0.21160465 -0.23333727 -0.21635745 -0.12229179 -0.15150213
-0.17104058 -0.18732978 -0.26703528 -0.17076364 -0.035777513 -0.15354061 -0.28755167 -0.1323548
-0.09374319 -0.2025603 -0.18820882 -0.2577439 -0.10649134 -0.17451604 -0.1034864 -0.14597404
-0.13109796 -0.14458191 -0.1085551 -0.06173654 -0.02723617 -0.13826932 -0.14203928 -0.0488469
-0.04873837 -0.12735632 -0.11845172 -0.07853917 -0.1113538 -0.078133896 -0.17594267 -0.17320912

conv4.1.running_mean f4 [64]
00000000: 05ac e5bf eebb 87bf b3ac 38c0 a912 53c0
00000010: 1de0 153f 3c94 89be 5acc 30c0 7c42 9cbf
00000020: a3a7 85bf 5253 3bc0 e608 93bf c415 69c0
00000030: 5cf3 fabf 82f5 393e 113a 933f 43d7 0dc0
00000040: a59b 0240 fd7e 90c0 64bd 0cbe f7aa 48c0
00000050: 1762 efbe 7b98 25c0 ac4e 5440 ba0d 80bf
00000060: 70c9 43c0 d014 73bf 40f2 7dc0 73a4 2e3f
00000070: d156 8bbf 7a3b 1740 0f3a 603f 7b2d 24c0
00000080: a5c2 d9bf 3749 d7bf 7520 603f 3a70 21bf
00000090: a60a eebe 6059 2d40 5656 f23d 3677 86bc
000000a0: 5e21 d3bf b0ad 7440 5368 1ec0 9cc2 fe3e
000000b0: 7b02 5940 4809 dcbf 8b87 21bf b2b0 ac3f
000000c0: a427 60c0 2801 1240 d390 1fc0 0a24 3ec0
000000d0: 46bd 56c0 4129 88bf d21d f33f 3640 c6bf
000000e0: 96d6 cf3f c7bf c8bf ac74 b03e 3898 cebf
000000f0: 4adc 25c0 d25f 94bf a3d8 b0bf ba0c 60c0
-1.7943121 -1.0604227 -2.8855407 -3.298014 0.58545095 -0.26870906 -2.7624726 -1.220779
-1.0441784 -2.9269605 -1.148709 -3.6419535 -1.9605517 0.1816006 1.1502095 -2.2162635
2.0407498 -4.5155015 -0.13744122 -3.1354349 -0.46754524 -2.5874317 3.3173018 -1.0004189
-3.0591698 -0.9495363 -3.9679108 0.6821968 -1.0885869 2.3630052 0.8758859 -2.565276
-1.7012526 -1.6819218 0.87549525 -0.6306187 -0.464925 2.70858 0.118328735 -0.016414266
-1.6494558 3.823101 -2.4751174 0.4975785 3.3907764 -1.7190332 -0.6309745 1.3491423
-3.5024195 2.2813206 -2.4932144 -2.9709496 -3.3553023 -1.063759 1.8993475 -1.5488346
1.6237361 -1.5683526 0.34464014 -1.6140203 -2.5915704 -1.1591742 -1.3816112 -3.5007768

conv4.1.running_var f4 [64]
00000000: 1805 1541 6e09 3340 8e04 5240 7314 a840
00000010: b2cf 4940 7d20 a340 5d7d 6640 1121 8d40
00000020: 6d84 b540 6f17 b840 b7da a940 4187 0e41
00000030: 5368 e640 e5db a340 9219 6040 3ad6 9440
00000040: e803 8e40 0de8 1741 726d ad40 912a a040
00000050: e2bb cb40 6f43 b740 bdb8 8540 91ff 5b40
00000060: 7b8b d140 f8dd f540 a1ae e140 04ac ad40
00000070: 38fd 9140 79ae 1241 88ee 8440 61a4 0a41
00000080: 6934 7740 4b56 2140 e49b 1440 3c9b 9e40
00000090: 2564 b240 4c44 aa40 71ec 8340 5c70 9c40
000000a0: 91c1 7540 b97d c640 46cb c140 326a 1440
000000b0: 5fff 7a40 64f8 ac40 a0bb e040 0682 6e40
000000c0: 0cd2 fb40 92ae 2641 ed72 a740 3579 de40
000000d0: c68d dc40 b460 9d40 4871 6a40 9b5c ac40
000000e0: 947f f340 8262 e840 de42 d940 faf2 9c40
000000f0: cd6a 8c40 8083 9940 5621 a140 4bf7 0e41
9.313744 2.7974505 3.281528 5.2524962 3.1533017 5.097716 3.6014016 4.4102864
5.6724153 5.7528605 5.3079486 8.908021 7.200235 5.1205926 3.5015607 4.6511507
4.437977 9.494153 5.41961 5.005196 6.366685 5.7269816 4.178801 3.4374735
6.5482764 7.683346 7.052567 5.427248 4.5621605 9.167596 4.1541176 8.665132
3.8625739 2.520892 2.3220148 4.9564495 5.5747247 5.320837 4.1226125 4.8887157
3.8399394 6.202847 6.0560637 2.3189816 3.9218366 5.405321 7.0229034 3.726686
7.8693905 10.41762 5.232779 6.952296 6.8923063 4.9180546 3.6631641 5.3863044
7.6093235 7.262025 6.7894125 4.90466 4.388037 4.7973022 5.0353193 8.935374
