ad_attack/chkpt_files/fastai_organmnist_99_weights.pt (torch, 986400 bytes, 36 tensors)

conv1.0.weight f4 [32, 1, 3, 3]
0	0xbe7ea0e9	-0.2486607
1	0xbdf72c21	-0.12068964
2	0x3e8c2a11	0.27375844
3	0x3e2ef15e	0.17084262
4	0xbc4af9ee	-0.012388689
5	0xbe6250c1	-0.22101118
6	0x3e83c88d	0.25738946
7	0xbd644265	-0.05572738
8	0xbe5d1238	-0.21588981
9	0xbe29cd67	-0.16582261
10	0x3e5cd3b7	0.21565138
11	0xbe3ba608	-0.18325055
12	0x3e6ff1e2	0.23432115
13	0x3d5b2bca	0.053508557
14	0x3e77a761	0.24184944
15	0x3dec2d1f	0.11532044
16	0xbe9e354d	-0.3090004
17	0xbe610efd	-0.21978374
18	0xbdbe9190	-0.093051076
19	0x3e82be59	0.2553585
20	0x3dc3356e	0.09531675
21	0xbe92eb0c	-0.28694952
22	0xbe6162a2	-0.22010282
23	0x3e31b3b8	0.17353714
24	0xbeccd6de	-0.4000768
25	0xbebb689c	-0.36603248
26	0xbe3ec7fe	-0.18630978
27	0x3e5456ec	0.20736283
28	0xbe6b692e	-0.22989342
29	0xbdc3e8bd	-0.09565876
30	0x3e2c8bc0	0.16850185
31	0xbe6f55f3	-0.23372631
32	0xbd4a79c0	-0.049432516
33	0xbe896390	-0.26833773
34	0x3e825596	0.25455922
35	0x3e24e12f	0.16101526
36	0x3e6cf511	0.2314036
37	0x3e3286d7	0.1743425
38	0x3e575746	0.21029386
39	0xbc94756f	-0.018122403
40	0x3c78c392	0.015183346
41	0x3c1c090b	0.00952364
42	0xbd5d097f	-0.053964134
43	0xbdd90dfe	-0.10598372
44	0xbe1293fd	-0.14314266
45	0x3dd7a4ef	0.105295055
46	0xbdf77ca8	-0.12084323
47	0x3ced672a	0.028979857
48	0x3a5052b4	0.0007946894
49	0xbe30df38	-0.17272651
50	0xbe2095d8	-0.15682161
51	0x3e9592ff	0.29213712
52	0x3e7e1c4b	0.2481548
53	0xbe3c331d	-0.18378873
54	0xbe8dea06	-0.27717608
55	0x3dcfc9bd	0.101459004
56	0xbcf422b5	-0.029801706
57	0xbe0bd40a	-0.13655105
58	0x3e491092	0.19635227
59	0xbd13a3e2	-0.036044963
60	0x3e227701	0.15865709
61	0x3e98d2ec	0.2984842
62	0x3ea2ab38	0.31771255
63	0x3e919233	0.28431854
64	0xbd83cc2f	-0.06435429
65	0xbdae111a	-0.084993556
66	0xbe82aa2b	-0.25520453
67	0x3e4c5e66	0.19957885
68	0x3e410555	0.1884969
69	0xbe991173	-0.29896125
70	0x3e4ac5c4	0.19802004
71	0xbe33890a	-0.17532745
72	0x3d95eb72	0.07320298
73	0xbe8b019a	-0.2714966
74	0xbdfefc26	-0.12450437
75	0x3e9373c1	0.2879925
76	0xbda2e96d	-0.07954679
77	0xbe9e36fa	-0.3090132
78	0x3e0e6734	0.13906556
79	0xbb9549f7	-0.0045559364
80	0xbe2a6047	-0.1663829
81	0xbdc9d13f	-0.09854364
82	0xbd8f37ee	-0.069930896
83	0x3e206914	0.15665084
84	0x3e977635	0.29582372
85	0xbdba2249	-0.090885706
86	0xbdf6a5ef	-0.12043368
87	0x3e5ffecf	0.21874546
88	0x3d270c0b	0.04078297
89	0xbe82ba86	-0.2553293
90	0x3e4409cb	0.1914436
91	0x3cc34f86	0.02384163
92	0xbe33d3d4	-0.17561275
93	0x3e55cb5f	0.20878361
94	0x3e1b7365	0.15180738
95	0xbe247ee6	-0.16064033
96	0xbe6a4b70	-0.2288034
97	0xbde6df06	-0.11273007
98	0x3e325eb8	0.17418945
99	0xbe33ffd0	-0.17578053
100	0xbde4ee8d	-0.111783125
101	0x3e04baa4	0.12961823
102	0xbed694b0	-0.41910315
103	0x3e0a4880	0.13504219
104	0x3e78eb5b	0.24308531
105	0xbe4edaa0	-0.20200586
106	0xbe7b9eda	-0.24572316
107	0x3d59d339	0.053179953
108	0x3d8a455e	0.06751512
109	0x3e2115be	0.1573095
110	0xbe821277	-0.25404713
111	0xbe08e3ed	-0.13368197
112	0xbe9549cf	-0.29157874
113	0xbdb2faf4	-0.08739272
114	0xbda165f6	-0.07880776
115	0x3e8411fd	0.25794974
116	0x3e981beb	0.297088
117	0xbe441fe3	-0.19152789
118	0x3e72967e	0.2369022
119	0x3e79a69e	0.24379966
120	0xbdaf890f	-0.08571064
121	0x3d2acfed	0.0417022
122	0xbe19a3ec	-0.15003937
123	0x3d8fcba8	0.07021266
124	0xbe492a68	-0.19645083
125	0xbe5bfe1f	-0.21483658
126	0xbe946a76	-0.28987473
127	0xbe8776db	-0.26457867
128	0x3d8ab7c1	0.067733295
129	0x3d8b0b72	0.067892924
130	0xbea9323f	-0.33046147
131	0xbea4be4c	-0.32176435
132	0xbe6a48c7	-0.22879325
133	0x3d5cbfb3	0.053893756
134	0xbd5d2221	-0.053987626
135	0x3cb21a59	0.02174108
136	0xbe4f5c0e	-0.2024996
137	0x3e7dd6eb	0.24789016
138	0x3dc11895	0.09428517
139	0xbcbf46ee	-0.023349252
140	0x3e1626b0	0.14663196
141	0x3d9314d9	0.07181711
142	0xbe895967	-0.2682602
143	0xbe02a779	-0.12759198
144	0x3e7c622f	0.24646829
145	0x3e842e17	0.25816414
146	0xbe52b06d	-0.20575114
147	0x3eab5a87	0.33467504
148	0xbd4d3de7	-0.050107863
149	0x3e1860bc	0.14880651
150	0x3e9a6bc3	0.3016034
151	0x3e9b1b46	0.30294245
152	0xbca7604d	-0.020431662
153	0x3d30d3af	0.043170627
154	0x3e66042b	0.22462527
155	0x3e493f9f	0.19653176
156	0xbe1e750d	-0.15474339
157	0x3d0fc68a	0.03510145
158	0xbe7585ed	-0.2397687
159	0xbe8db9a3	-0.27680692
160	0x3de1bf2b	0.110227905
161	0x3e6370d1	0.22211005
162	0x3e254901	0.1614113
163	0x3d8db22a	0.06918748
164	0xbe9863d5	-0.29763666
165	0x3e197465	0.14985807
166	0x3e49da5d	0.19712205
167	0xbe4a2844	-0.19741923
168	0x3e7a1caa	0.24424997
169	0xbd5009c7	-0.050790574
170	0x3caa03f1	0.020753833
171	0x3dfe3df7	0.124141626
172	0xbe1856b5	-0.14876826
173	0xbe163c04	-0.14671332
174	0xbd37ada0	-0.044843316
175	0x3ec0efd6	0.3768298
176	0xbe0ed8e3	-0.13949923
177	0x3dc80b70	0.097678065
178	0xbea6154b	-0.3243812
179	0xbe4f9a17	-0.20273624
180	0x3c84e4da	0.016222406
181	0xbe90443c	-0.2817706
182	0xbeae8052	-0.34082276
183	0x3d781eca	0.060576238
184	0x3de47c9d	0.111565806
185	0x3d8b0984	0.06788924
186	0x3d676e61	0.05650175
187	0x3e49764c	0.19674033
188	0x3e74e539	0.23915567
189	0xbe193847	-0.14962874
190	0x3e5530d3	0.20819406
191	0x3e6d06ed	0.23147173
192	0x3c8a4b60	0.016881645
193	0xbe8adbc6	-0.271208
194	0xbd6e5292	-0.058184214
195	0xbdf68e58	-0.12038869
196	0x3d336278	0.04379508
197	0x3e8328c6	0.25617045
198	0x3dd71a0b	0.10503014
199	0x3d1f5bae	0.038905792
200	0x3e3ae465	0.18251188
201	0x3e204520	0.15651369
202	0x3e465258	0.19367349
203	0xbe6426f8	-0.2228049
204	0xbded0076	-0.115723535
205	0x3c26fded	0.010192377
206	0xbe1fc9ee	-0.15604374
207	0x3c668da2	0.014071854
208	0xbe00d1fc	-0.12580103
209	0x3e2dfa5a	0.16990033
210	0xbd1fbb32	-0.038996883
211	0x3d438e0e	0.047742896
212	0x3d0ed5b9	0.03487179
213	0xbef54b1d	-0.4790887
214	0x3d249afa	0.04018686
215	0xbd8ee53b	-0.06977316
216	0x3e9dbabd	0.30806533
217	0x3e80ccf2	0.2515636
218	0x3e58aedc	0.21160454
219	0xbe712e12	-0.2355273
220	0xbe670b54	-0.22562915
221	0xbdecebe8	-0.11568433
222	0x3e6a92f5	0.22907622
223	0xbe884df4	-0.26621974
224	0xbe65a027	-0.22424375
225	0xbcae47f1	-0.021274539
226	0x3e07c0f7	0.13257204
227	0x3dd124b1	0.102120765
228	0x3e4dbc37	0.2009133
229	0xbe1df5bc	-0.15425771
230	0xbeaa41fa	-0.3325346
231	0xbd17531b	-0.03694449
232	0xbe4ee560	-0.20204687
233	0xbecb2fa0	-0.39684772
234	0xbd5bb0b6	-0.05363532
235	0xbe441553	-0.1914876
236	0x3e1b4fe1	0.1516719
237	0xbdee11e0	-0.11624503
238	0xbd2a5fd3	-0.04159529
239	0xbe9fa66a	-0.3118165
240	0x3e31329a	0.17304459
241	0x3e86e0d0	0.26343393
242	0xbe054f97	-0.13018642
243	0xbe7146d0	-0.23562169
244	0x3e027194	0.12738639
245	0xbd9002c4	-0.070317775
246	0xbdb9ec44	-0.09078267
247	0xbdb30b25	-0.0874236
248	0x3e07f732	0.13277891
249	0xbe0bddd9	-0.13658847
250	0x3d7fed56	0.0624822
251	0x3e72a531	0.23695828
252	0xbe6b14dd	-0.22957177
253	0xbe861770	-0.26189756
254	0x3d7c63be	0.06161856
255	0x3e138bc8	0.14408791

conv1.0.bias f4 [32]
0	0x3e5704d0	0.2099793
1	0x3e897e88	0.26854348
2	0xbd30f0e7	-0.043198492
3	0xbe37344a	-0.1789104
4	0xbe9c219a	-0.30494386
5	0xbc66db0a	-0.014090309
6	0xbe95607d	-0.29175177
7	0xbdcfea77	-0.101521425
8	0x3e78220d	0.2423174
9	0x3e13ec4d	0.1444561
10	0x3e0962bc	0.1341657
11	0xbde685d9	-0.11255998
12	0xbe0f6d4e	-0.1400654
13	0x3e50f4f4	0.20405942
14	0xbe82acd5	-0.25522485
15	0x3e4c9c08	0.19981396
16	0x3e8a1943	0.26972398
17	0xbe15d8a5	-0.14633425
18	0xbe88ff3f	-0.26757237
19	0xbe26487d	-0.1623859
20	0xbe695635	-0.22786792
21	0xbe93d9bc	-0.28877056
22	0xbe4f5407	-0.20246898
23	0xbe365791	-0.17806841
24	0xbdf67939	-0.1203484
25	0xbe86167a	-0.26189023
26	0x3dc89fc3	0.09796097
27	0x3e8cc280	0.27492142
28	0x3dca074f	0.09864675
29	0x3d1b8539	0.037968848
30	0xbea6f0e8	-0.32605672
31	0x3cb4c154	0.022064842

conv1.1.weight f4 [32]
0	0x3f765b93	0.9623348
1	0x3f8458d7	1.0339612
2	0x3f6d2118	0.9262862
3	0x3f7c7ae7	0.98625034
4	0x3f7d93dd	0.99053746
5	0x3f937867	1.1521119
6	0x3f854a53	1.0413307
7	0x3f887083	1.0659336
8	0x3f793565	0.973471
9	0x3f810417	1.0079373
10	0x3f86d8e6	1.0534942
11	0x3f6d7598	0.9275756
12	0x3f857a6b	1.0427984
13	0x3f67029c	0.90238357
14	0x3f535b53	0.82561225
15	0x3f8248b9	1.0178443
16	0x3f6ddee0	0.92918205
17	0x3f822ca3	1.0169872
18	0x3f7c65f2	0.98593056
19	0x3f6a37d9	0.91491467
20	0x3f87ecdc	1.0619159
21	0x3f7bc274	0.98343587
22	0x3f7e3a52	0.9930774
23	0x3f5cb814	0.8621838
24	0x3f7cfbd4	0.9882176
25	0x3f6c7649	0.9236799
26	0x3f77f55c	0.96858764
27	0x3f83bc8f	1.0291919
28	0x3f8e095e	1.1096609
29	0x3f86e9b4	1.054007
30	0x3f73db73	0.9525673
31	0x3f7bc434	0.9834626

conv1.1.bias f4 [32]
0	0xbe1886c4	-0.14895159
1	0x3d8afad3	0.06786122
2	0xbe39941f	-0.1812291
3	0xbd0c0227	-0.03418174
4	0x3c975e9d	0.018477732
5	0x3d88e4f9	0.06684298
6	0xbc0ac17c	-0.008468982
7	0x3da12816	0.07868974
8	0xbe2509ea	-0.16117063
9	0x3d57cf66	0.052688025
10	0x3e025da0	0.12731028
11	0xbe298a70	-0.16556716
12	0xbd3ea81d	-0.046547044
13	0xbdf3da89	-0.11906917
14	0xbe0f4a52	-0.13993195
15	0x3cd7350f	0.026270417
16	0xbd533399	-0.05156288
17	0x3d8b3cf0	0.06798732
18	0x3d74621f	0.059663888
19	0xbd844255	-0.06457964
20	0x3d90643a	0.07050367
21	0x3d2231b2	0.039598174
22	0x3ced6c36	0.028982263
23	0xbe60f201	-0.21967317
24	0x3dde11bb	0.108432256
25	0xbda4e31c	-0.0805113
26	0xbe0d7e24	-0.1381765
27	0xbc3ba676	-0.011453262
28	0x3e89a590	0.26884127
29	0xbdc54f77	-0.09634297
30	0xbe084643	-0.13308053
31	0xbd7c285b	-0.061561923

conv1.1.running_mean f4 [32]
0	0x3e5366db	0.20644705
1	0x3e8ab283	0.2708932
2	0xbd836e8c	-0.064175695
3	0xbe3a36e2	-0.18184999
4	0xbe979a01	-0.29609683
5	0xbc658477	-0.014008633
6	0xbe903740	-0.28167152
7	0xbdcd6eb8	-0.100308836
8	0x3e6ebdb4	0.23314553
9	0x3e169ac8	0.14707482
10	0x3e0c707c	0.13714784
11	0xbe015220	-0.12628984
12	0xbe139b3c	-0.14414686
13	0x3e4cbac8	0.19993126
14	0xbe91f218	-0.28505015
15	0x3e4ca742	0.19985679
16	0x3e994098	0.29932094
17	0xbe130b11	-0.1435969
18	0xbe851bfc	-0.25997913
19	0xbe2cd165	-0.16876753
20	0xbe684504	-0.22682577
21	0xbe930f99	-0.28722838
22	0xbe48c18b	-0.19605081
23	0xbe3e77df	-0.18600415
24	0xbdf757f0	-0.120773196
25	0xbe8c8b11	-0.2744985
26	0x3dba2e56	0.09090869
27	0x3e8b2a02	0.27180487
28	0x3dc262bf	0.094914906
29	0x3d1fa417	0.038974848
30	0xbea98431	-0.33108667
31	0x3c5a3af3	0.013319719

conv1.1.running_var f4 [32]
0	0x3dde105e	0.108429655
1	0x3d9ffbc3	0.078116916
2	0x3f8659a0	1.0496101
3	0x3da42023	0.08013942
4	0x3e24bb65	0.1608711
5	0x3db9247d	0.09040163
6	0x3ed71a6f	0.42012355
7	0x3da00868	0.07814103
8	0x3e9f3d5a	0.31101495
9	0x3db49198	0.08816832
10	0x3d903fa5	0.07043389
11	0x3ee1732f	0.4403319
12	0x3dc079d4	0.09398237
13	0x3e0525fb	0.1300277
14	0x3faf0f09	1.3676463
15	0x3d63f472	0.055653043
16	0x3fb947f0	1.4475079
17	0x3dd254f2	0.10270108
18	0x3e467d4c	0.19383734
19	0x3e51f895	0.20504983
20	0x3e249c4a	0.16075245
21	0x3db39052	0.08767761
22	0x3dc3898f	0.095477216
23	0x3e54065d	0.20705552
24	0x3e3d6177	0.18494211
25	0x3f0cfebf	0.5507621
26	0x3e008ccf	0.12553714
27	0x3da47f3d	0.08032081
28	0x3de986bc	0.11402652
29	0x3d9a961d	0.07548163
30	0x3dd573b4	0.10422459
31	0x3e3ba415	0.18324311

conv2.0.weight f4 [32, 32, 3, 3]
0	0x3db82f0a	0.08993347
1	0x3c2498b0	0.010046169
2	0xbce0c6c7	-0.027438534
3	0x3d81da39	0.06340451
4	0x3d5c3274	0.053759053
5	0xbd0e8ba8	-0.034801155
6	0x3d153680	0.03642893
7	0x3d18b021	0.037277345
8	0xbd5b9823	-0.053611886
9	0xbd850486	-0.064950034
10	0xbb486f16	-0.003058379
11	0xbdcd7eee	-0.100339755
12	0xbd4c2746	-0.04984214
13	0xbdc8dae7	-0.09807377
14	0xbd518f94	-0.051162317
15	0xbdbf9963	-0.09355428
16	0x3ce23883	0.027614838
17	0xbda4d723	-0.080488466
18	0xbd2671f5	-0.04063602
19	0xbd7882a2	-0.060671456
20	0xbd92f4a1	-0.071755655
21	0xbd15851a	-0.03650389
22	0x3a98f641	0.0011670069
23	0xbc25cd60	-0.010119766
24	0x3ca0243d	0.01954853
25	0x3d00c342	0.031436212
26	0xbd87cdd4	-0.066310555
27	0xbd685437	-0.05672094
28	0xbdc44fa4	-0.09585503
29	0xbcd720c6	-0.026260745
30	0x3caa1eec	0.020766698
31	0xbe009af5	-0.12559111
32	0xbd55a441	-0.052158598
33	0x3ce91ac8	0.028455153
34	0xbda6a387	-0.08136659
35	0xbc8b485f	-0.017002283
36	0xbd8d073e	-0.06886147
37	0xbd7ca2e9	-0.0616788
38	0x3d11dcdc	0.03561102
39	0xbdb28671	-0.08717049
40	0xbdf59698	-0.11991614
41	0xbd855665	-0.06510619
42	0xbd3005c9	-0.042974267
43	0xbd5588c0	-0.052132368
44	0xbd2a371e	-0.04155647
45	0x3d27dd74	0.04098268
46	0xbcdc112c	-0.026863657
47	0x3a8b4d6e	0.0010627934
48	0x3d9cd094	0.076569706
49	0x3d7f3ecc	0.062315747
50	0xbdb08241	-0.08618594
51	0x3c8abc59	0.016935514
52	0xbb3c4154	-0.0028725462
53	0xbda3dd15	-0.080011524
54	0xbbb97a47	-0.0056603285
55	0xbca83fab	-0.020538172
56	0xbc00671f	-0.007837086
57	0x3d25e2c1	0.040499453
58	0x3d07756b	0.033070963
59	0x3c0848d0	0.008318141
60	0xbd8f174c	-0.069868654
61	0x3d134864	0.03595771
62	0x3d2d6e34	0.042341426
63	0x3cc3d961	0.023907365
64	0x3d89b487	0.06723886
65	0x3dbb2806	0.09138493
66	0x3c9b984f	0.018993525
67	0xbc376402	-0.011193277
68	0x3ce0790c	0.02740147
69	0x3e06b6cc	0.13155669
70	0x3d5b31f3	0.053514432
71	0x3d3c71b7	0.046006884
72	0x3d828eba	0.06374879
73	0xbd087b4e	-0.033320718
74	0xbd08ce95	-0.033400137
75	0x3d70fe83	0.05883647
76	0x3cd7aede	0.0263285
77	0xbd1a82d6	-0.03772243
78	0xbced6d36	-0.02898274
79	0x3cb23003	0.02175141
80	0x3c8d4aa8	0.017247513
81	0xbc3cbdb1	-0.011519835
82	0xbdbba387	-0.0916205
83	0xbd9c182b	-0.07621797
84	0x3d50c599	0.050969694
85	0x3c728a42	0.014803471
86	0xbbc9cb55	-0.0061582723
87	0x3c80723c	0.015679471
88	0x3d864920	0.06556916
89	0xbe007a6c	-0.125467
90	0xbe05110b	-0.12994783
91	0xbdba7155	-0.091036476
92	0x3c3f9a37	0.0116944825
93	0xbd8106e2	-0.06300141
94	0xbd1b12a4	-0.037859574
95	0xbcaa55e2	-0.020792905
96	0x3c14402c	0.009048503
97	0xbd1faf33	-0.038985442
98	0xbd31ff86	-0.043456577
99	0x3dbbab9a	0.0916359
100	0x3ca8b31b	0.020593217
101	0x3b8f0170	0.004364185
102	0x3d9905d6	0.07471816
103	0x3aa7496b	0.0012762969
104	0xbc8a64df	-0.016893802
105	0x3d7d99cf	0.06191426
106	0xbca50bc6	-0.020147216
107	0xbcbbac3a	-0.022909272
108	0xbce98d7f	-0.028509853
109	0x3c269d2b	0.010169308
110	0x3d5ff407	0.054676082
111	0xbd49cc0e	-0.049266867
112	0xbe0a8ead	-0.13530989
113	0xbd20fc7d	-0.03930329
114	0xbdb9658d	-0.090525724
115	0xbd891f02	-0.066953674
116	0xbda57a06	-0.08079915
117	0x3c2bd486	0.010487681
118	0x3bed6d78	0.0072457157
119	0xbc5a821d	-0.0133366855
120	0xbd7bd888	-0.061485797
121	0xbd3efcb5	-0.04662772
122	0xbd87672b	-0.066114746
123	0x3d018acc	0.031626508
124	0xbd3a7501	-0.04552174
125	0xbd871ef9	-0.065977044
126	0xbba00e67	-0.0048845294
127	0x3c49dda2	0.012320908
128	0xbd9ad234	-0.07559624
129	0xbd54b9b2	-0.051934905
130	0xbd2373ac	-0.039905235
131	0xbd3468f6	-0.04404541
132	0xbc44231e	-0.011971263
133	0xbd1adae8	-0.03780642
134	0xbd724f60	-0.05915773
135	0x3d5826bd	0.05277132
136	0x3d1df299	0.038561437
137	0xbcc8aa93	-0.024495399
138	0x3d31ce2a	0.043409504
139	0x3d5e22ef	0.054232534
140	0xbda56459	-0.080757804
141	0x3d28b0d3	0.041184258
142	0x3d8c1ead	0.068417884
143	0xbd320ce2	-0.043469317
144	0xbdb86683	-0.090039276
145	0xbd856279	-0.06512923
146	0x3bae6f48	0.0053233244
147	0xbce7f7b8	-0.028316364
148	0xbd466523	-0.048436295
149	0x3d7775c5	0.06041505
150	0x3cb04997	0.021519465
151	0xbd34d4a5	-0.044148106
152	0xbbbe830f	-0.0058139632
153	0xbca69f22	-0.020339552
154	0x3dd2d7ba	0.10295053
155	0x3dd9ecac	0.10640845
156	0xbd886781	-0.06660367
157	0x3c958c71	0.018255444
158	0x3d851613	0.06498351
159	0xbc466ac0	-0.012110412
160	0xbb3f6363	-0.0029203526
161	0x3de13066	0.109955594
162	0xbcad114f	-0.021126417
163	0xbdc89359	-0.09793729
164	0x3ba07ebf	0.004897922
165	0xbd80c136	-0.06286852
166	0xbd7a3a1f	-0.061090585
167	0xbbd2de42	-0.0064351866
168	0x3c4c18d5	0.012457092
169	0xbd2f710b	-0.042832416
170	0xbd39539b	-0.045245748
171	0x3cd9b952	0.026577625
172	0xbdcbd884	-0.099534065
173	0xbb89079f	-0.0041818167
174	0xbd1ec2be	-0.03875994
175	0xbd9dceba	-0.077054456
176	0xbd771e15	-0.060331423
177	0xbc0ac67e	-0.008470176
178	0xbd08fe3c	-0.03344558
179	0xbd97c835	-0.07411233
180	0xbdb70bcb	-0.08937796
181	0xbe00ad16	-0.12566027
182	0xbd43c74b	-0.047797482
183	0x3cfdaf22	0.030967299
184	0xbc5bab2f	-0.013407513
185	0xbd1ad15e	-0.037797324
186	0xbcd59f5e	-0.026076969
187	0xbca888c9	-0.020573037
188	0xbd2902a9	-0.041262303
189	0x3cf3f4ae	0.029779758
190	0x3d2db392	0.04240758
191	0x3dcabc0c	0.09899148
192	0x3cacfce6	0.021116685
193	0x3d912ecb	0.07089003
194	0x3da3287b	0.079667054
195	0xbc14e61e	-0.009088067
196	0x3dbd92b7	0.09256499
197	0x3d54f196	0.051988207
198	0xbdfb57ff	-0.12272643
199	0xbdb3c894	-0.087784916
200	0xbc710a8f	-0.01471199
201	0xbdbb9bd6	-0.09160583
202	0xbd13fe6d	-0.03613131
203	0xbcd17ed6	-0.025573175
204	0xbd89cb41	-0.06728221
205	0xbd6330b3	-0.055466365
206	0xbd1b3733	-0.03789444
207	0x3bf748d6	0.0075465245
208	0xbd0bb571	-0.034108583
209	0xbd250cb6	-0.040295325
210	0xbc96c816	-0.018405955
211	0x3d4f8f73	0.050673913
212	0xbc1f4d3b	-0.009723003
213	0x3d0b60d8	0.034027904
214	0xbd232313	-0.03982837
215	0xbcdb2d29	-0.026754932
216	0x3b19c293	0.0023461923
217	0xbd710c5e	-0.058849685
218	0xbca9ec9d	-0.020742709
219	0xbd956c12	-0.072960034
220	0xbcc01954	-0.023449577
221	0xbd087eb5	-0.033323962
222	0xbd76221d	-0.060091127
223	0xbca6e788	-0.020374075
224	0xbe32f104	-0.17474753
225	0xbc0805c1	-0.008302153
226	0xbc220e01	-0.009891034
227	0xbb0a03e8	-0.0021059457
228	0x3a72b458	0.00092584407
229	0xbd6654ba	-0.056233145
230	0xbd92d084	-0.071686774
231	0x3c665a73	0.014059651
232	0xbd4ae405	-0.049533863
233	0xbdaa712a	-0.083223656
234	0x3d3a27a3	0.045447957
235	0xbd3f828f	-0.04675537
236	0xbd9cf080	-0.07663059
237	0x3d14282e	0.03617113
238	0xbcc938fc	-0.024563305
239	0xbde8b50a	-0.113626555
240	0xb90371bc	-0.00012535503
241	0x3c957144	0.018242486
242	0xbd86875c	-0.065687865
243	0x3cddb657	0.027064485
244	0x3c8bdb91	0.01707247
245	0x3c70fb31	0.014708326
246	0xbc8d8778	-0.01727651
247	0x3c3e4171	0.011612282
248	0x3db24278	0.08704084
249	0x3d76d96d	0.060265947
250	0x3db3606b	0.08758625
251	0xbc198d8c	-0.009372126
252	0x3d678a1e	0.056528203
253	0x3d23ecb2	0.040020652
254	0x3c1d71ea	0.009609679
255	0x3d9e3aa5	0.07726029

conv2.0.bias f4 [32]
0	0x3be2ff5c	0.006927414
1	0xbc9e91c8	-0.019356623
2	0xbc688c84	-0.014193658
3	0xbb6fa454	-0.0036566453
4	0xbc80de7f	-0.015731094
5	0xbc0567b3	-0.0081424
6	0xbc3ff6c8	-0.011716552
7	0x3cdcc2c1	0.026948335
8	0xbc957b4b	-0.018247267
9	0x3cbdb742	0.023158673
10	0x3cc19c2e	0.023634043
11	0x3d5b4ee1	0.05354202
12	0xbd57ee2e	-0.05271738
13	0x3ca60a92	0.020268712
14	0xbc5a8d15	-0.013339301
15	0x3c25996c	0.010107379
16	0xbd2ca7c8	-0.042152196
17	0x3d548a21	0.051889542
18	0xbcc4aebf	-0.024009107
19	0x3c8bd602	0.01706982
20	0xbd5c75d3	-0.053823303
21	0x3d09fc7d	0.033688057
22	0x3cdf4319	0.027253674
23	0x3cd6834a	0.02618565
24	0x3cee55ca	0.029093642
25	0x3d05e4cc	0.0326889
26	0x3ccc645c	0.024950199
27	0xbcb25088	-0.021766916
28	0xbc6ae76a	-0.0143374
29	0xbcdbf3fc	-0.02684974
30	0x3d25556b	0.040364664
31	0xbd6566e7	-0.05600634

conv2.1.weight f4 [32]
0	0x3f8126c7	1.0089959
1	0x3f7eec28	0.99579096
2	0x3f850e4b	1.0394987
3	0x3f75a175	0.9594949
4	0x3f804a3a	1.0022652
5	0x3f82d2cb	1.0220579
6	0x3f7d10fa	0.9885403
7	0x3f885c41	1.0653154
8	0x3f83994d	1.0281159
9	0x3f76e1d5	0.9643834
10	0x3f821bfa	1.0164788
11	0x3f81b8bd	1.0134503
12	0x3f6f102d	0.9338406
13	0x3f889c1e	1.0672643
14	0x3f83748d	1.0269943
15	0x3f66ea8b	0.90201634
16	0x3f6d5317	0.9270491
17	0x3f882a04	1.0637822
18	0x3f78b895	0.9715665
19	0x3f7ea16b	0.99465054
20	0x3f8be132	1.0928099
21	0x3f5f3b13	0.87199515
22	0x3f635f88	0.88817644
23	0x3f7940e6	0.9736465
24	0x3f8108a4	1.0080762
25	0x3f76b6ad	0.9637249
26	0x3f877f78	1.0585775
27	0x3f7cce01	0.98751837
28	0x3f73b4cb	0.95197743
29	0x3f80ded9	1.0068008
30	0x3f74d044	0.9563029
31	0x3f8233e7	1.0172089

conv2.1.bias f4 [32]
0	0xbe1bb714	-0.15206558
1	0xbe25f63e	-0.16207215
2	0xbd4ecf68	-0.050490767
3	0xbe3b6bd2	-0.18302849
4	0xbe0983df	-0.13429211
5	0xbdfcd749	-0.1234575
6	0xbe10cfca	-0.14141765
7	0xbe2584a8	-0.16163886
8	0xbe037585	-0.12837799
9	0xbdf4eb29	-0.11958916
10	0xbde10acd	-0.10988388
11	0xbd47943c	-0.04872535
12	0xbe08a17f	-0.13342856
13	0xbe4bc648	-0.19899857
14	0xbe0174f5	-0.12642272
15	0xbe1229bf	-0.14273737
16	0xbdb4562b	-0.08805498
17	0x3b883a41	0.004157335
18	0xbdf8df03	-0.12151911
19	0xbdddd7b8	-0.10832161
20	0xbdc6630c	-0.096868604
21	0xbe3d780d	-0.18502827
22	0xbe112370	-0.14173675
23	0xbd3a36ba	-0.045462348
24	0xbe36c48e	-0.17848417
25	0xbdd0d83f	-0.10197496
26	0xbd85dcdc	-0.06536266
27	0xbddbf788	-0.10740572
28	0xbe12cf20	-0.14336824
29	0xbe31af33	-0.1735199
30	0xbe04aa83	-0.1295567
31	0xbcce2d39	-0.025168048

conv2.1.running_mean f4 [32]
0	0xbfba6ae4	-1.456387
1	0xbfa11daa	-1.2587178
2	0xbf5625c5	-0.8365138
3	0x3f06d472	0.52667916
4	0xbfb3ac74	-1.4037004
5	0x3e992435	0.29910436
6	0x404ce0f2	3.2012296
7	0x3e728203	0.23682408
8	0xbff38ce4	-1.9027371
9	0x4073ef49	3.8114798
10	0x3ed15c13	0.4089056
11	0xbfe53168	-1.7905703
12	0xbf01f872	-0.5076972
13	0xbeedca2e	-0.46443313
14	0xc015794e	-2.3355289
15	0x3e38fdae	0.18065521
16	0xbe45164f	-0.19246791
17	0x3e7766dd	0.24160333
18	0x3e466ba4	0.19376999
19	0xbf64890a	-0.89271605
20	0xbf35f819	-0.7108169
21	0xbf29f954	-0.6639607
22	0xbf06f20e	-0.52713096
23	0x4011ffbd	2.281234
24	0x3f19b0fe	0.60035694
25	0x3f20fd62	0.6288663
26	0xbf075242	-0.5285989
27	0xbe1d2446	-0.15345868
28	0xbd813039	-0.06308026
29	0xbf6349e3	-0.8878462
30	0x3f95e103	1.1709293
31	0x3dbac01a	0.09118672

conv2.1.running_var f4 [32]
0	0x4002a908	2.0415668
1	0x3fbc0461	1.4688836
2	0x3f9b8495	1.2149836
3	0x3fe864f5	1.815581
4	0x3ff839a2	1.9392588
5	0x3ff31cb3	1.8993133
6	0x405d0f67	3.454065
7	0x3fac8a7d	1.3479763
8	0x4051d1d2	3.2784314
9	0x4054f3cd	3.3273804
10	0x3ffb14f3	1.9615768
11	0x4061b7dc	3.526847
12	0x3fad1e49	1.3524867
13	0x3f943b53	1.1580604
14	0x401196ea	2.274836
15	0x3f85085b	1.0393175
16	0x3fe5cf33	1.7953857
17	0x3faf052b	1.3673452
18	0x3ff2de9a	1.8974183
19	0x3f91137e	1.1334074
20	0x3fca4c6e	1.5804574
21	0x3f4b03a6	0.7930244
22	0x40137c76	2.3044715
23	0x400406d8	2.0629177
24	0x4001dd03	2.0291145
25	0x4044b220	3.073372
26	0x3f8f5cc3	1.1200184
27	0x3f8a388b	1.0798506
28	0x4020e9a1	2.5142596
29	0x3fc954d6	1.5729015
30	0x3f91d1fe	1.139221
31	0x3f89f36c	1.0777411

conv3.0.weight f4 [64, 32, 3, 3]
0	0x3c14138f	0.009037866
1	0x3b0cc01d	0.0021476813
2	0x3d45be3a	0.048277117
3	0x3b443361	0.002993785
4	0xbcdad096	-0.02671079
5	0x3d8caa43	0.06868412
6	0xbc86fceb	-0.016478023
7	0x3cb06e72	0.02153704
8	0x3cd28521	0.025698246
9	0xbd4c523f	-0.049883123
10	0xbe004bce	-0.12528917
11	0xbd3057b1	-0.04305238
12	0xbd857ff1	-0.065185435
13	0x3caaf8f7	0.020870669
14	0xbd7c8bbf	-0.06165671
15	0x3c509297	0.012730262
16	0x3d53d44e	0.05171614
17	0x3d7180fe	0.058960907
18	0x3da6fae9	0.08153326
19	0x3c8e14b6	0.01734386
20	0x3d9067f8	0.070510805
21	0xbd4b615e	-0.049653403
22	0x3cc37db5	0.023863653
23	0x39fd67c9	0.00048333246
24	0xbda7ae5f	-0.081875555
25	0xbd394170	-0.04522842
26	0x3c763efd	0.015029666
27	0xbc32a491	-0.0109034935
28	0x3c926535	0.017870525
29	0xbd1558e5	-0.03646173
30	0x3d302728	0.043006092
31	0xbd2bac26	-0.04191222
32	0xbda713d4	-0.08158079
33	0x3d9dcd85	0.07705215
34	0x3d9e2a46	0.07722907
35	0x3d1d59b3	0.038415622
36	0xbbd8801b	-0.0066070682
37	0xbcab0128	-0.020874575
38	0xbd309870	-0.043114126
39	0x3e116b11	0.14200999
40	0x3c99d088	0.018776193
41	0xbbe66e61	-0.007032201
42	0x3de4d11f	0.11172699
43	0x3dfe7f77	0.12426656
44	0x3c0b5ad1	0.008505539
45	0x3e26f7ef	0.16305517
46	0xbad90e80	-0.0016560107
47	0xbd28ce30	-0.04121226
48	0x3d512e4c	0.051069543
49	0x3c332828	0.010934867
50	0xbd3101ac	-0.043214485
51	0x3df2e499	0.11860008
52	0x3d879dab	0.0662187
53	0xbd0d7ad0	-0.03454095
54	0xbd61d359	-0.055133197
55	0xbd0793a2	-0.033099778
56	0x3cb14988	0.021641508
57	0xbd457fec	-0.0482177
58	0xbb9e8686	-0.004837814
59	0x3c88ddf8	0.016707405
60	0x3dba33a3	0.0909188
61	0xbd2f3562	-0.04277552
62	0x3b1160ee	0.0022183019
63	0x3d3586f1	0.044318143
64	0x3d32f237	0.043688025
65	0x3d62006e	0.05517619
66	0xbbeeadc6	-0.007283899
67	0x3b8e12b8	0.0043357275
68	0x3c6b1ad6	0.01434966
69	0x3db3b300	0.08774376
70	0xbce7d0b0	-0.028297752
71	0xbce0bae5	-0.027432868
72	0x3d1564b5	0.036472995
73	0xbcdc929b	-0.026925376
74	0x3b4afe41	0.00309743
75	0x3d3e51ef	0.046464857
76	0x3d3956dd	0.045248855
77	0xbd92ee0d	-0.07174311
78	0x3dd749ba	0.10512109
79	0x3d1b4a96	0.037912928
80	0xbd0ef875	-0.034904916
81	0x3d9061d1	0.07049907
82	0x3e034702	0.12820056
83	0x3d2f62a3	0.042818677
84	0xbcc8f9b0	-0.024533123
85	0x3d414348	0.047183305
86	0x3c989527	0.018625809
87	0x3c57901e	0.013156919
88	0x3b114da2	0.0022171517
89	0x3ce4dc2f	0.027937023
90	0x3e168d63	0.14702372
91	0xbbb5b457	-0.00554518
92	0x3dc0feb9	0.094235845
93	0x3dbec1d8	0.093143165
94	0xbd781ef5	-0.060576398
95	0x3d03ca26	0.032175206
96	0x3d759621	0.059957627
97	0xbd48dc37	-0.04903814
98	0xbc97bfb5	-0.01852403
99	0x3da1ec55	0.07906405
100	0x3c6b8cc1	0.01437682
101	0x3d05987e	0.03261613
102	0xbceca90a	-0.028889198
103	0xbd1b94d3	-0.037983727
104	0xbc698fca	-0.014255473
105	0xbe1ae45e	-0.15126178
106	0xbdb8ce2c	-0.09023699
107	0xbd9b7c6f	-0.07592093
108	0xbce5d277	-0.028054459
109	0xbac95eec	-0.0015363372
110	0x3dae1673	0.085003756
111	0xbc74e3a3	-0.014946851
112	0x3c5039a0	0.012709051
113	0x3ccb592e	0.024822798
114	0x3bfc2427	0.0076947394
115	0x3d02e16f	0.03195327
116	0x3dfed453	0.124428414
117	0x3c7bcbea	0.015368441
118	0x3d7ff47c	0.062489018
119	0xbb93a3ac	-0.004505595
120	0xbcd1ea27	-0.025624348
121	0xbd8d75e9	-0.06907255
122	0xbdaa891c	-0.08326933
123	0x3dc10289	0.09424312
124	0x3dabe2dd	0.0839288
125	0x3d683e26	0.056699894
126	0x3d0f3e20	0.034971356
127	0xbd561dd5	-0.052274544
128	0xbcd1e9e6	-0.025624227
129	0xbdc511ed	-0.0962256
130	0xbcd976a6	-0.026545834
131	0x3c869033	0.016426181
132	0xbd85ef8b	-0.0653983
133	0xbcdfdda5	-0.027327368
134	0xbd486e90	-0.048933566
135	0xbd58cc7a	-0.05292938
136	0xbe13c4a3	-0.1443048
137	0xbde2e80b	-0.11079415
138	0x3d2027b3	0.03910036
139	0xbd00f700	-0.031485558
140	0xbd76c28e	-0.060244136
141	0x3d9cc149	0.07654054
142	0x3d67bdea	0.0565776
143	0xbd65ecfe	-0.056134216
144	0xbbc4af2d	-0.006002328
145	0xbc31b899	-0.010847234
146	0xbd95d9d6	-0.073169395
147	0x3cc0892c	0.023502909
148	0xbd690d6c	-0.056897566
149	0xbc7f77d8	-0.015592538
150	0x3dd2df80	0.102965355
151	0x3db23b74	0.08702746
152	0x3cb6b262	0.022301856
153	0x3d11eaab	0.035624187
154	0xbd53af49	-0.051680837
155	0x3d3f17a4	0.046653405
156	0xbd1073de	-0.03526675
157	0xbc401522	-0.011723788
158	0x3d7cb478	0.061695546
159	0x3b75b7f7	0.0037493685
160	0x3cf8867b	0.030337563
161	0x3df044da	0.117318824
162	0x3d7bb3b1	0.061450664
163	0x3d307610	0.043081343
164	0x3cb29768	0.021800712
165	0xbd8eae20	-0.069668055
166	0xbcea7451	-0.028619917
167	0x3d78b303	0.060717594
168	0xbcbfffc6	-0.023437392
169	0x3ac4ce9a	0.0015015185
170	0xbcabfb6e	-0.020993914
171	0xbd343f5b	-0.044005733
172	0xbd3d036d	-0.046145845
173	0xbdf811ce	-0.12112771
174	0xbd4d48b1	-0.050118152
175	0x3d4fe885	0.050758857
176	0xbd27e928	-0.04099384
177	0xbd1b815c	-0.037965164
178	0xbbd53c13	-0.0065074055
179	0xbd360792	-0.044440813
180	0xbda258e8	-0.07927114
181	0xbdbb0178	-0.091311395
182	0xbdd6da0d	-0.10490809
183	0x3cc66a3f	0.024220584
184	0xbcd2c65e	-0.025729354
185	0xbda08200	-0.078372955
186	0x3db7669a	0.089551166
187	0x3e15b643	0.14620309
188	0x3d9b8913	0.07594504
189	0x3d6a2151	0.05716068
190	0x3ce296e4	0.02765984
191	0x3d6e1f7f	0.058135506
192	0xbce79a1d	-0.02827173
193	0xbccdaebc	-0.025107734
194	0x3b53c4fe	0.0032313461
195	0x3d20929f	0.03920233
196	0xbcc17c18	-0.023618743
197	0x3c27f646	0.010251587
198	0xbd05571c	-0.032553777
199	0xbc440c35	-0.011965801
200	0xbd33469d	-0.043768514
201	0x3dc12e04	0.09432605
202	0x3c202d8c	0.009776484
203	0xbc046770	-0.008081302
204	0x3e3800bf	0.17969035
205	0x3d8c505f	0.06851267
206	0xbd3016d6	-0.042990528
207	0x3d815126	0.06314306
208	0x3db283fd	0.08716581
209	0x3cd9d784	0.026592024
210	0xbd225f15	-0.03964146
211	0xbd13d0c5	-0.03608777
212	0x3c1f8150	0.00973542
213	0x3c10ab9f	0.00882998
214	0x3d1f8eb8	0.038954467
215	0xbc40f69e	-0.011777548
216	0xbd715337	-0.05891725
217	0xbd6d2b65	-0.057902712
218	0xbd15656f	-0.036473688
219	0xbde96a03	-0.11397173
220	0xbdca74a8	-0.09885532
221	0xbb3a8161	-0.0028458463
222	0xbd3e3eb4	-0.046446517
223	0x3d0dc57c	0.034612164
224	0x3d543469	0.051807795
225	0x3c3b48ff	0.011430978
226	0x3d171656	0.036886536
227	0x3d014d95	0.03156813
228	0x3d8802fc	0.06641194
229	0x3ccd1fab	0.025039515
230	0xbbe1d4a2	-0.006891803
231	0x3ddc1800	0.10746765
232	0x3d135f05	0.03597929
233	0x3d7753d4	0.06038268
234	0xbce4fc6f	-0.027952401
235	0xbd8754ac	-0.06607947
236	0x3ca9cda1	0.020727934
237	0xbd8a3f9d	-0.067504145
238	0xbdf48fdc	-0.119415015
239	0xbdb5ee52	-0.088833466
240	0xbcdf0b24	-0.027226992
241	0x3bcbc47b	0.0062184907
242	0x3d824e7a	0.063626245
243	0x3ddb258a	0.107005194
244	0x3ceca7bc	0.028888576
245	0xbc3768ff	-0.011194467
246	0x3c7d279d	0.015451339
247	0xbd59d13f	-0.05317807
248	0x3c772207	0.015083796
249	0x3c82e494	0.015978135
250	0xbd3bc9e4	-0.045846835
251	0xba26139c	-0.00063353195
252	0xbdb1632c	-0.08661494
253	0xbd51bd1e	-0.051205747
254	0xbd9d1156	-0.07669322
255	0x3daa8ec4	0.08328012

conv3.0.bias f4 [64]
0	0x3ba30a4d	0.004975593
1	0x3c9f721c	0.019463591
2	0x3d6a253c	0.057164416
3	0xbcf9301e	-0.030418452
4	0x3c92c48f	0.017915992
5	0xbd7126df	-0.05887496
6	0xbcd8c360	-0.02646035
7	0xbd3c6c68	-0.04600182
8	0xbd20aaf2	-0.039225526
9	0x3ce003f2	0.027345631
10	0x3d3f7792	0.04674489
11	0xbb0d3acd	-0.002154994
12	0xbca1fb04	-0.019773014
13	0xbbcfb391	-0.0063385447
14	0xbd151fb8	-0.036407202
15	0x3bc4c6f4	0.0060051624
16	0xbd54dfec	-0.05197136
17	0x3ce5acd8	0.02803652
18	0x3d62a5b9	0.055333827
19	0xbd4da151	-0.05020267
20	0xbd5860a4	-0.05282654
21	0x3af05aeb	0.0018337643
22	0x3c102464	0.008797739
23	0x3b71e0eb	0.0036907743
24	0xbc2c0ff6	-0.010501852
25	0xbd0e92cc	-0.034807965
26	0x3b8521a2	0.0040628472
27	0xbcd1040c	-0.025514625
28	0x3b0592ed	0.0020381764
29	0x3c6876b1	0.0141884545
30	0x3d5cd8df	0.053917762
31	0xbc16e381	-0.009209515
32	0xbc9499aa	-0.018139679
33	0xbd29c00f	-0.041442927
34	0x3d6c77b4	0.057731345
35	0xbd2c7b23	-0.04210962
36	0x3ccd89ec	0.02509018
37	0x3d167fed	0.036743093
38	0xbd0260ea	-0.031830706
39	0xbd545cf0	-0.051846445
40	0xbcd1b556	-0.025599163
41	0x3cd26ed1	0.025687607
42	0xbd6b8a17	-0.05750474
43	0xbcceff7e	-0.025268313
44	0x3c7e16e1	0.015508384
45	0xbbbdb2d2	-0.0057891393
46	0x3c8181d7	0.015808983
47	0x3c8a4cfd	0.016882414
48	0x3d180102	0.037110336
49	0xbcb870f9	-0.022514807
50	0xbc92fd9e	-0.0179432
51	0x3d338601	0.043828968
52	0x3d2a2eb1	0.041548435
53	0x3d21bc18	0.03948602
54	0xbc8968c0	-0.016773582
55	0xbc6a121e	-0.014286546
56	0xbc58a70d	-0.013223422
57	0xbc12e182	-0.008964898
58	0x3b55e97e	0.0032640393
59	0xbd072aa2	-0.032999642
60	0xbbfbe4ab	-0.0076871715
61	0xbd63c631	-0.055608932
62	0xbc714acf	-0.014727308
63	0xbd614b11	-0.05500323

conv3.1.weight f4 [64]
0	0x3f8038c9	1.001733
1	0x3f70605a	0.9389702
2	0x3f6b87be	0.92004
3	0x3f8bb9e5	1.0916106
4	0x3f822fb1	1.0170804
5	0x3f744483	0.9541704
6	0x3f79a429	0.97516114
7	0x3f71c1dc	0.9443643
8	0x3f814ce6	1.0101593
9	0x3f81cdb2	1.0140898
10	0x3f6a5f15	0.91551334
11	0x3f8565f9	1.0421745
12	0x3f7eb3a6	0.9949287
13	0x3f835306	1.0259712
14	0x3f75b737	0.9598269
15	0x3f6eaadb	0.93229455
16	0x3f6bd6b7	0.92124504
17	0x3f75ba2f	0.9598722
18	0x3f8d8e71	1.1059095
19	0x3f7960e4	0.9741347
20	0x3f7cc87c	0.98743415
21	0x3f700226	0.9375328
22	0x3f7f099c	0.9962404
23	0x3f7163f6	0.94293153
24	0x3f648743	0.89268893
25	0x3f7dae04	0.9909365
26	0x3f819239	1.0122749
27	0x3f832b40	1.0247574
28	0x3f852db6	1.0404575
29	0x3f8394ff	1.0279845
30	0x3f7e9fff	0.99462885
31	0x3f831543	1.0240864
32	0x3f6b4615	0.9190381
33	0x3f7be54a	0.9839674
34	0x3f829d44	1.0204244
35	0x3f89e62a	1.0773365
36	0x3f8bbaf4	1.0916429
37	0x3f795cae	0.9740704
38	0x3f8078b1	1.0036832
39	0x3f805578	1.0026083
40	0x3f87370b	1.0563673
41	0x3f88c031	1.0683652
42	0x3f5a5aa4	0.85294557
43	0x3f823b6c	1.0174384
44	0x3f78627d	0.9702528
45	0x3f8986d0	1.0744267
46	0x3f835efb	1.0263361
47	0x3f8062d6	1.0030162
48	0x3f889bbe	1.0672529
49	0x3f7e84f7	0.9942164
50	0x3f7f0e17	0.99630874
51	0x3f6214e3	0.8831312
52	0x3f80416a	1.0019963
53	0x3f82d127	1.0220078
54	0x3f8ef3f4	1.1168199
55	0x3f81e111	1.014681
56	0x3f5fac85	0.8737262
57	0x3f6dc6ee	0.9288167
58	0x3f7ddb74	0.99162984
59	0x3f83f066	1.0307739
60	0x3f8186b5	1.0119234
61	0x3f7aae6e	0.9792241
62	0x3f833eab	1.02535
63	0x3f77238b	0.9653861

conv3.1.bias f4 [64]
0	0xbdf1dc91	-0.11809648
1	0xbe306ea4	-0.17229706
2	0xbe4b514d	-0.19855233
3	0xbd027ab4	-0.0318553
4	0xbe347abb	-0.17624943
5	0xbe2d74e6	-0.16939124
6	0xbe22f38b	-0.15913217
7	0xbe356121	-0.17712833
8	0xbe365057	-0.17804085
9	0xbdfb3881	-0.12266637
10	0xbe30125a	-0.171945
11	0xbd620e11	-0.055189196
12	0xbdf086af	-0.11744439
13	0xbe1eb622	-0.15499166
14	0xbdac0c71	-0.084008105
15	0xbe00db77	-0.12583719
16	0xbe4138bd	-0.188693
17	0xbde9ee64	-0.114224225
18	0xbd720b73	-0.05909295
19	0xbdbab79d	-0.09117053
20	0xbdf3ebd4	-0.11910215
21	0xbdb63039	-0.088959165
22	0xbe0d9edd	-0.13830133
23	0xbd84152c	-0.06449351
24	0xbe375f5f	-0.17907475
25	0xbe10ef7d	-0.14153858
26	0xbdbd2ba0	-0.092368364
27	0xbdca8dbb	-0.09890314
28	0xbdd5a230	-0.104313254
29	0xbe046fde	-0.12933299
30	0xbd91ef01	-0.071256645
31	0xbda4a8f2	-0.08040036
32	0xbe56b455	-0.20967229
33	0xbe2523ce	-0.1612694
34	0xbe3692c3	-0.17829423
35	0xbd8cef25	-0.06881551
36	0xbdac9536	-0.08426897
37	0xbe02a435	-0.12757953
38	0xbde544eb	-0.11194786
39	0xbe23c9f7	-0.15995012
40	0xbdeb9151	-0.11502326
41	0xbd51a52f	-0.051182922
42	0xbe2b3f14	-0.16723281
43	0xbd1675d8	-0.03673348
44	0xbdbd97d1	-0.09257472
45	0xbdca59a5	-0.098803796
46	0xbd856271	-0.06512917
47	0xbdacbc34	-0.084343344
48	0xbd25c8dc	-0.040474758
49	0xbd0d4527	-0.034489777
50	0xbd4d9012	-0.050186224
51	0xbe3087f2	-0.17239359
52	0xbdb21abd	-0.08696506
53	0xbe0ff02a	-0.14056459
54	0xbd27ce30	-0.04096812
55	0xbdfe0bde	-0.12404607
56	0xbe04d72d	-0.12972708
57	0xbe276cfa	-0.16350165
58	0xbd997564	-0.074930936
59	0xbcff0883	-0.031131988
60	0xbdf87c0f	-0.12133037
61	0xbe06a152	-0.13147476
62	0xbd2eac80	-0.042644978
63	0xbdcbf562	-0.099589124

conv3.1.running_mean f4 [64]
0	0x3edf34dc	0.43595016
1	0x3f0076c5	0.5018123
2	0x3ec30fdd	0.3809804
3	0xbfceda64	-1.6160398
4	0x3f87c43e	1.0606763
5	0x40036ebc	2.0536337
6	0x3f525d7a	0.82173884
7	0x3fc28f2b	1.5199941
8	0x3f9bfef8	1.2187185
9	0xbf1b5073	-0.6066963
10	0x3ee18fc1	0.44054988
11	0x3f6e67d0	0.93127155
12	0xbff3e422	-1.9053996
13	0xbea55559	-0.32291678
14	0x3f61498c	0.8800285
15	0xbf9e9482	-1.2389071
16	0x4028cb4e	2.6374087
17	0xbee72410	-0.451447
18	0x3ee02363	0.43776998
19	0x3ddbf56b	0.10740169
20	0x3ee5fa3d	0.4491748
21	0xbf4f346a	-0.8093935
22	0x3ec87b0b	0.39156374
23	0x3ed860de	0.42261404
24	0x3f855c28	1.0418749
25	0x40558384	3.336152
26	0xbf459554	-0.7718098
27	0x401e79db	2.4761875
28	0x3f69555e	0.91145885
29	0x3e3fa644	0.18715769
30	0xbed081b8	-0.40723968
31	0x3d150c4f	0.03638869
32	0x401b74c7	2.4290025
33	0x3fabe678	1.3429708
34	0xbf0e9076	-0.5568918
35	0xbd722c26	-0.059124134
36	0x3f82c385	1.0215918
37	0x3da32e47	0.07967811
38	0xbe62493c	-0.22098249
39	0x3e29214b	0.16516607
40	0x3ebcf227	0.36903498
41	0xbfa9b44c	-1.3258147
42	0xc0367093	-2.850621
43	0xbffdd3c3	-1.983025
44	0xc05d99b2	-3.4625058
45	0xbf123fd5	-0.5712865
46	0xbf64ad5e	-0.8932704
47	0xbf2cbe38	-0.6747775
48	0xbf4100b0	-0.75391674
49	0xbf823304	-1.0171819
50	0xc034a47b	-2.822539
51	0xbf116a4c	-0.5680282
52	0xbcef0fb5	-0.029182294
53	0xbfac2b48	-1.3450708
54	0xbf8fb641	-1.1227494
55	0x3f627f3f	0.8847541
56	0xbf323d8e	-0.69625175
57	0xbf06c903	-0.5265047
58	0x3f1589dc	0.5841348
59	0xbf42af36	-0.760486
60	0xbfd7278f	-1.6808947
61	0xbcfd1502	-0.030893806
62	0x3f98449e	1.189594
63	0x3e352132	0.17688444

conv3.1.running_var f4 [64]
0	0x3feef387	1.8668069
1	0x401165d2	2.2718396
2	0x401740ac	2.3633223
3	0x401f8453	2.4924514
4	0x4003b734	2.0580568
5	0x40338d1a	2.8054872
6	0x3ff1ab39	1.8880378
7	0x3fcf2ce1	1.6185571
8	0x3fb452d3	1.4087776
9	0x3f8b0196	1.0859859
10	0x3fdfbf3c	1.7480235
11	0x3fe789d0	1.8088932
12	0x40136dba	2.3035722
13	0x3ff14f83	1.885239
14	0x4045533d	3.0832055
15	0x40027be4	2.0388117
16	0x4041b0b6	3.0264106
17	0x400cd621	2.2005694
18	0x3fa1ad55	1.2631022
19	0x3f86277e	1.0480802
20	0x3fbe9433	1.4888977
21	0x402a0a73	2.6568878
22	0x3f996e2a	1.1986744
23	0x3fcfd9f2	1.6238387
24	0x40191c4b	2.3923519
25	0x401e2952	2.471272
26	0x3fc93ee4	1.5722318
27	0x40001479	2.0012496
28	0x3fdcc63e	1.7247999
29	0x3fff5c6c	1.995008
30	0x3fc0fd6f	1.5077342
31	0x3fe72ba0	1.8060188
32	0x407c814a	3.9453912
33	0x3fbd3a34	1.4783387
34	0x3faf473e	1.3693616
35	0x3fd9269e	1.696491
36	0x3fc4b838	1.5368719
37	0x3fd7e81d	1.686771
38	0x3fb28c39	1.3949043
39	0x3fc5d303	1.5455021
40	0x3fe1987f	1.7624663
41	0x40142063	2.3144767
42	0x401f8817	2.4926813
43	0x402a51c8	2.6612415
44	0x4061328f	3.5187109
45	0x3fb15486	1.385392
46	0x403d43c3	2.9572608
47	0x40063340	2.096878
48	0x401b836b	2.429896
49	0x3feedba5	1.866078
50	0x40263c87	2.5974443
51	0x401441ab	2.316508
52	0x3ffe0f61	1.9848443
53	0x3fd03ef0	1.6269207
54	0x4005b5bb	2.089217
55	0x3fb82b09	1.4388133
56	0x40049c93	2.0720565
57	0x40267f73	2.601529
58	0x3fcfa648	1.622262
59	0x40117f95	2.273412
60	0x4013c265	2.30874
61	0x3fb505a6	1.4142349
62	0x401a6ccf	2.4128911
63	0x3fbf65a2	1.4952891

conv4.0.weight f4 [64, 64, 3, 3]
0	0xbd09b126	-0.033616208
1	0xbc9f2499	-0.01942663
2	0xbb84dadd	-0.004054411
3	0x3c67ead8	0.014155112
4	0xbd54a9d3	-0.05191977
5	0xbd1647de	-0.03668963
6	0xbdbbac7e	-0.0916376
7	0xbd9c8df4	-0.07644263
8	0xbc4feafe	-0.012690304
9	0x3bffd65f	0.0078075374
10	0xbce92396	-0.028459352
11	0xbcd024be	-0.025408145
12	0x3db68cd8	0.089135826
13	0x3d0835f9	0.033254597
14	0xbbab6d80	-0.0052315593
15	0x3d9b7562	0.07590748
16	0x3ceeab85	0.029134521
17	0x3c190751	0.009340123
18	0x3cbffbe5	0.023435542
19	0xb95f5231	-0.00021297556
20	0x3c2a939e	0.010411171
21	0x3c85f104	0.016350277
22	0xbd291ee1	-0.041289214
23	0xbd18a738	-0.037268847
24	0xbd6cf91f	-0.057854768
25	0xbdad6ddc	-0.0846822
26	0xbd2c6093	-0.042084288
27	0x3c50cba2	0.012743862
28	0x3d16d970	0.03682846
29	0xbcece64e	-0.028918412
30	0x3d9e56c1	0.07731391
31	0x3d51a056	0.0511783
32	0xbd645b7e	-0.055751316
33	0xbd0df003	-0.03465272
34	0x3cd7d5e5	0.02634711
35	0xbd04b090	-0.032394946
36	0xbc887463	-0.01665706
37	0xb9fd7500	-0.00048343092
38	0x3b89e1ba	0.004207817
39	0xbd525124	-0.051346913
40	0xbcd34890	-0.025791436
41	0x3caa1c3e	0.02076542
42	0x3d38f5ce	0.045156293
43	0x3c289a1b	0.010290648
44	0x3d9fbcc9	0.0779968
45	0x3a730f1b	0.0009271965
46	0x3c31522c	0.010822814
47	0xbd54cf22	-0.05195535
48	0xbcfb72ac	-0.030694328
49	0xbbb18807	-0.005417827
50	0xbd426dac	-0.047467873
51	0xbc88e56a	-0.016710956
52	0xbc7b2f3e	-0.015331088
53	0x3bae0833	0.005311036
54	0x3d4ac52f	0.049504455
55	0x3d70b4ef	0.0587663
56	0xbcef6985	-0.02922512
57	0xbd29d5f3	-0.041463803
58	0xbd37d5be	-0.044881575
59	0xbd80e848	-0.06294304
60	0xbd8256d9	-0.06364221
61	0xbd2f5a10	-0.0428105
62	0xbdedf161	-0.11618305
63	0xbd3d0714	-0.04614933
64	0x3c2ba539	0.010476404
65	0xbbaff40c	-0.005369669
66	0xbd1195c1	-0.035543207
67	0x3c8c8677	0.017153962
68	0xbbc5b236	-0.0060332073
69	0xbd490d11	-0.049084727
70	0xbdab400f	-0.083618276
71	0xbd25eab4	-0.040507033
72	0x3caa2cec	0.020773374
73	0xbad7e593	-0.0016471617
74	0xbce9c3a2	-0.028535668
75	0x3d53d58f	0.051717337
76	0xbd8718e6	-0.06596546
77	0xbcff9534	-0.031199075
78	0xbd9521a6	-0.072818086
79	0xbde91fd7	-0.11383026
80	0xbd96e69e	-0.073682055
81	0xbc359700	-0.0110833645
82	0xbc12392d	-0.008924765
83	0xbd9fce1f	-0.07802986
84	0xbcf68cf6	-0.030096512
85	0xbd6176b9	-0.055044863
86	0xbd4dfedf	-0.050291892
87	0xbd5dc893	-0.05414636
88	0xbd40e606	-0.047094367
89	0xbc9ce252	-0.019150887
90	0x3ddcb2e5	0.10776309
91	0x3d8ae2f7	0.06781571
92	0x3d227a1a	0.039667226
93	0x3d7cbc15	0.061702807
94	0x3d0eea1a	0.034891225
95	0x3d74ec43	0.05979563
96	0xbc74cff7	-0.014942161
97	0xbcb33142	-0.021874074
98	0x3cffada0	0.03121072
99	0xbd2c3622	-0.042043813
100	0xbc342f7e	-0.010997651
101	0xbc9e2d33	-0.019308662
102	0xbd31edd8	-0.043439716
103	0x3b602cc8	0.003420638
104	0x3da5a940	0.080889225
105	0xbceb5966	-0.028729152
106	0x3c0a3d7d	0.0084375115
107	0x3d31e5a0	0.043431878
108	0xbdd7d53b	-0.10538717
109	0xbdb3fa6e	-0.08788
110	0xbcf0cf71	-0.02939579
111	0xbd42b070	-0.047531545
112	0xbcaa834c	-0.02081456
113	0x3d03ba78	0.032160252
114	0x3d21f22f	0.039537605
115	0x3ca7878e	0.02045038
116	0x3d8a2ad9	0.06746454
117	0xbdc9cedb	-0.09853908
118	0x3b5ed1ca	0.0033999556
119	0xbc891170	-0.016731948
120	0xbd995194	-0.07486263
121	0xbc9ee453	-0.019395983
122	0xbc7192ff	-0.014744519
123	0xbd2e1f10	-0.042510092
124	0xbcba7040	-0.022758603
125	0x3d4d190f	0.050072726
126	0x3db40afc	0.087911576
127	0x3bd0299f	0.006352618
128	0x3d813c52	0.06310333
129	0xbadb5c40	-0.0016735867
130	0xbd192009	-0.037384067
131	0x3d378bd4	0.044811085
132	0x3d693acb	0.056940835
133	0x3c001bc9	0.0078191245
134	0x3d7b446d	0.061344553
135	0x3cd23051	0.025657805
136	0xbcbdb4f9	-0.023157584
137	0xbd67f25c	-0.056627616
138	0x3d0c1bc3	0.034206163
139	0x3d7f7324	0.062365666
140	0x3bb2f26d	0.0054610283
141	0x3d95b80d	0.073104955
142	0x3d738e81	0.059462074
143	0x3c0894c6	0.008336252
144	0x3cfffb85	0.031247864
145	0x3d4b52a6	0.049639367
146	0x3d541d0d	0.051785517
147	0x3cb72299	0.022355365
148	0x3c8440ec	0.016144238
149	0x3bb5f3cf	0.005552746
150	0x3cba0d59	0.022711443
151	0x3d680447	0.056644704
152	0x3d316088	0.04330495
153	0xbda4e784	-0.080519706
154	0xbd4d6410	-0.050144255
155	0xbdbc3c5d	-0.09191201
156	0xbdaf5176	-0.08560459
157	0xbdb73915	-0.089464344
158	0xbe00ba33	-0.1257103
159	0xbd01d12a	-0.031693615
160	0xbdeca826	-0.11555509
161	0xbde44202	-0.111454025
162	0x3c6a3da8	0.014296927
163	0x3d9aa7a2	0.07551505
164	0x3dd73ec5	0.10510019
165	0x3d9dd98c	0.077075094
166	0x3cf4e978	0.029896483
167	0x3e0c0360	0.13673162
168	0x3de12ff5	0.10995475
169	0x3d754764	0.059882537
170	0x3dc4e8e5	0.096147336
171	0x3ba912e6	0.0051597236
172	0x3c121928	0.0089171305
173	0xbbbfc4eb	-0.005852332
174	0xbbc90150	-0.0061341897
175	0xbc30ed60	-0.010798782
176	0x3dbb2be4	0.09139231
177	0xbc5dea36	-0.01354461
178	0x3c9d7563	0.019221013
179	0x3d964469	0.07337267
180	0x3d2d141b	0.042255502
181	0xbd4acc16	-0.049511038
182	0xbc78ecd8	-0.015193187
183	0x3d8e05d9	0.06934709
184	0xbc9a1041	-0.018806579
185	0xbd10d86b	-0.035362642
186	0x3d6d3b49	0.057917867
187	0x3da82d24	0.08211735
188	0x3d31a3d4	0.04336913
189	0xbd1320ce	-0.035919957
190	0xbd9b462d	-0.07581744
191	0xbdd4b93f	-0.103868954
192	0xbdd057f3	-0.10173025
193	0xbda75cd1	-0.08172
194	0xbccdc600	-0.025118828
195	0xbd9200f9	-0.07129092
196	0xbd149b1b	-0.036280733
197	0xbd9c4d3c	-0.07631919
198	0x3d094b89	0.0335193
199	0x3c2803b0	0.010254785
200	0xbc96e0ed	-0.0184178
201	0x3cf15ec4	0.029464133
202	0xbc78ace1	-0.015177936
203	0xbd7c3b52	-0.06158001
204	0xbd87ea78	-0.06636518
205	0xbc3b68f3	-0.011438596
206	0xbd3c7ba9	-0.04601637
207	0x3d0bedb9	0.034162257
208	0x3c3da9e7	0.011576152
209	0xbd4fb6bf	-0.05071139
210	0x3d731408	0.059345275
211	0x3a94ced8	0.0011353148
212	0xbd3c7d5e	-0.046017997
213	0xbc61d23c	-0.013783034
214	0x3d39d850	0.045372307
215	0xbc569de4	-0.0130991675
216	0xbd8d4d45	-0.068995036
217	0xbd2cdb60	-0.0422014
218	0xbd3804d6	-0.044926487
219	0x3ca1ebf3	0.01976583
220	0xbc9f0d2d	-0.019415462
221	0xbd3a4f84	-0.04548599
222	0x3ce7d835	0.028301338
223	0xbd340ae0	-0.043955684
224	0xbdb9041b	-0.09033986
225	0xbd7698eb	-0.060204428
226	0xbdd4b08d	-0.10385237
227	0xbd417428	-0.047229916
228	0xbd440cad	-0.04786365
229	0xbdb5d113	-0.08877768
230	0xbd600773	-0.054694604
231	0xbd2fa064	-0.04287757
232	0xbdd9ed4c	-0.10640964
233	0xbd51e9f0	-0.05124849
234	0xbd1669ac	-0.03672187
235	0xbd9ff691	-0.07810701
236	0xbdf38411	-0.11890424
237	0x3cf7e4f5	0.030260542
238	0xbd579474	-0.05263181
239	0xbda21588	-0.07914263
240	0xbd4c8628	-0.04993263
241	0xbd190423	-0.03735746
242	0xbca72f1f	-0.020408211
243	0xbc72ef6d	-0.014827591
244	0xbb1f3530	-0.0024293177
245	0x3d347445	0.044056196
246	0x3cff3819	0.03115468
247	0x3b382041	0.0028095397
248	0x3d8cdb97	0.06877821
249	0x3d2019d7	0.039087143
250	0x3bb48af5	0.005509729
251	0x3d1bb4d6	0.038014255
252	0xbd185ac1	-0.037195925
253	0xbd073c6a	-0.0330166
254	0xbdc1107a	-0.09426971
255	0xbd3c510d	-0.045975734

conv4.0.bias f4 [64]
0	0x3d11fce1	0.035641555
1	0x3c48e100	0.012260675
2	0xbcb1be76	-0.021697264
3	0xbc8d04ed	-0.017214263
4	0xbca0cd49	-0.019629138
5	0xbce17cef	-0.027525393
6	0x3d266633	0.04062481
7	0xbcc12251	-0.023575934
8	0xbd057339	-0.032580588
9	0xbc1ed0f2	-0.009693371
10	0xbc254f06	-0.010089641
11	0xbd0d9192	-0.034562655
12	0x3c05091d	0.008119849
13	0xbb9ea3fc	-0.004841326
14	0x3cfdd316	0.030984443
15	0x3beaf0e1	0.0071698283
16	0x39489dbe	0.0001913225
17	0x3cd6673a	0.02617227
18	0x3cc24cc5	0.023718247
19	0x3d236157	0.039887752
20	0xbcde9351	-0.027169855
21	0xbc308e75	-0.010776152
22	0x3d03f5a2	0.032216676
23	0x3ca2fd8c	0.019896291
24	0x3c74b64b	0.01493604
25	0xbab00db6	-0.001343182
26	0xbd182266	-0.03714218
27	0xbc54d36b	-0.012989859
28	0xbcca7591	-0.024714263
29	0x3bc7a3bb	0.0060925162
30	0xbd238886	-0.03992512
31	0x3c89cc91	0.016821178
32	0xbc00f5ca	-0.007871101
33	0xbb09e67c	-0.002104192
34	0x3caa0800	0.020755768
35	0x3ce143fb	0.027498236
36	0x3c90c3aa	0.017671425
37	0x3d074d2b	0.033032577
38	0x3c7e9dcb	0.01554055
39	0x3c108798	0.008821391
40	0x3cc9f318	0.024652049
41	0x3d05c3ca	0.032657422
42	0xbd2192cc	-0.039446637
43	0x3bbd82a7	0.0057833972
44	0x3c14aab1	0.009073899
45	0x3caa6e41	0.020804526
46	0xbc4f832f	-0.012665554
47	0x3d03a20c	0.03213696
48	0x3cf06f7a	0.029350031
49	0x3be36b37	0.0069402712
50	0xba944bef	-0.0011314134
51	0xbc9a831c	-0.018861346
52	0x3cdfc732	0.027316663
53	0xbc773c48	-0.015090056
54	0x3cab6c18	0.020925567
55	0xbcca2429	-0.024675446
56	0xbc9e9579	-0.019358383
57	0xbba9d902	-0.00518334
58	0xbad7bc85	-0.0016459381
59	0xbcbdc7d7	-0.02316658
60	0xbc84adbd	-0.016196126
61	0xbd2771f5	-0.040880162
62	0xbcdc216f	-0.026871411
63	0x3c4a6662	0.0123535115

conv4.1.weight f4 [64]
0	0x3f7069d5	0.93911487
1	0x3f7b213b	0.9809758
2	0x3f69111c	0.9104173
3	0x3f7ff081	0.99976355
4	0x3f796f1a	0.9743515
5	0x3f83452d	1.0255486
6	0x3f7417e7	0.9534897
7	0x3f7a17a0	0.976923
8	0x3f764ef0	0.962142
9	0x3f644d90	0.8918085
10	0x3f87b726	1.0602767
11	0x3f5fcbe2	0.87420475
12	0x3f87c08a	1.0605633
13	0x3f892acc	1.0716186
14	0x3f881b26	1.0633285
15	0x3f76fe8e	0.9648217
16	0x3f861088	1.0473795
17	0x3f809b11	1.0047323
18	0x3f83218c	1.0244613
19	0x3f8668fa	1.0500786
20	0x3f822f26	1.0170639
21	0x3f844a9e	1.0335271
22	0x3f7d9c3d	0.99066526
23	0x3f83fd1b	1.0311617
24	0x3f82e993	1.0227531
25	0x3f85d476	1.0455463
26	0x3f6e4bed	0.93084604
27	0x3f74df96	0.95653665
28	0x3f80ae94	1.0053277
29	0x3f6a8ab0	0.9161787
30	0x3f77aa15	0.967439
31	0x3f84b7c8	1.0368586
32	0x3f84adf7	1.036559
33	0x3f86bf3e	1.0527112
34	0x3f7c3a24	0.98526216
35	0x3f786302	0.97026074
36	0x3f839db7	1.0282506
37	0x3f7e00a1	0.9921971
38	0x3f711eaf	0.94187444
39	0x3f8089a7	1.0042008
40	0x3f6c431c	0.922899
41	0x3f8e32ee	1.1109293
42	0x3f822be2	1.0169642
43	0x3f7bb684	0.9832537
44	0x3f7dc36f	0.99126333
45	0x3f7c14cd	0.9846924
46	0x3f7d239c	0.9888246
47	0x3f6f6d3f	0.9352607
48	0x3f844fbe	1.0336835
49	0x3f84a9c5	1.036431
50	0x3f7accc5	0.97968704
51	0x3f80dd51	1.006754
52	0x3f834d1e	1.0257909
53	0x3f76cd03	0.96406573
54	0x3f822b13	1.0169395
55	0x3f7bd86f	0.98377126
56	0x3f77cce0	0.9679699
57	0x3f79f7f5	0.9764398
58	0x3f8603a0	1.0469856
59	0x3f8450fe	1.0337217
60	0x3f7c7c74	0.986274
61	0x3f6d6579	0.9273296
62	0x3f7d3b45	0.98918563
63	0x3f823986	1.0173805

conv4.1.bias f4 [64]
0	0xbe094905	-0.13406761
1	0xbded7b69	-0.11595804
2	0xbe022449	-0.12709154
3	0xbe15d0e2	-0.14630464
4	0xbdf572ad	-0.11984763
5	0xbda8d8cc	-0.08244476
6	0xbe1ecc93	-0.15507726
7	0xbe0d8557	-0.13820396
8	0xbe282c9a	-0.16423264
9	0xbe1dbf38	-0.15404975
10	0xbd94fc18	-0.072746456
11	0xbe5e4237	-0.21704946
12	0xbd73bcd4	-0.059506252
13	0xbd8bda3c	-0.06828734
14	0xbd90cfb2	-0.07070865
15	0xbde5be6c	-0.11217961
16	0xbd6c1bff	-0.057643887
17	0xbe162e1c	-0.14666027
18	0xbd9624b7	-0.073312216
19	0xbdf1ac7f	-0.11800479
20	0xbd6b4350	-0.05743724
21	0xbd8bb6db	-0.06821986
22	0xbdff3181	-0.12460614
23	0xbd8cff0b	-0.06884583
24	0xbe6afdf9	-0.22948445
25	0xbdc4059f	-0.09571385
26	0xbe4c5ff0	-0.19958472
27	0xbe0c0283	-0.13672833
28	0xbd26a8c4	-0.04068829
29	0xbe459b9a	-0.19297639
30	0xbe01c0b0	-0.1267116
31	0xbd99d466	-0.07511215
32	0xbdae7d6d	-0.08520017
33	0xbe17159a	-0.14754334
34	0xbe487a25	-0.19577844
35	0xbe1936e7	-0.1496235
36	0xbdd28d8e	-0.10280906
37	0xbe04f026	-0.12982234
38	0xbdd2b8a7	-0.10289126
39	0xbdc35de3	-0.09539392
40	0xbde68b89	-0.11257083
41	0x3c2e928a	0.010655055
42	0xbd994154	-0.074831635
43	0xbe1eff94	-0.15527183
44	0xbe00634a	-0.12537876
45	0xbdb7e1f1	-0.08978642
46	0xbe1f5478	-0.15559566
47	0xbe1c6501	-0.15272905
48	0xbd83de3a	-0.06438871
49	0xbdecacd3	-0.11556401
50	0xbe0e83ea	-0.13917509
51	0xbd952236	-0.07281916
52	0xbd97627d	-0.07391832
53	0xbdd43e1c	-0.10363409
54	0xbdb2a472	-0.08722772
55	0xbe114877	-0.141878
56	0xbe2475f8	-0.16060627
57	0xbe1502aa	-0.14551798
58	0xbe0d0e65	-0.13775022
59	0xbd9fb68e	-0.077984914
60	0xbe1f8c60	-0.15580893
61	0xbe2c0ac5	-0.16800983
62	0xbdfcb5e6	-0.12339382
63	0xbdf836cf	-0.12119829

conv4.1.running_mean f4 [64]
0	0xc02161bb	-2.52159
1	0x3d4da592	0.05020673
2	0x3e2bdaf0	0.16782737
3	0xc01e17bf	-2.4701993
4	0x3fe4878c	1.7853866
5	0xbfbabcbb	-1.4588846
6	0xc012b18e	-2.292087
7	0xbf519dc0	-0.8188133
8	0xbf9e4596	-1.2364986
9	0xbf83992c	-1.0281119
10	0xbfb11995	-1.3835932
11	0x3f2532ef	0.64530843
12	0xbc6539e6	-0.013990855
13	0xbfc2346c	-1.5172248
14	0xbfab2c32	-1.3372862
15	0xc008e97c	-2.1392508
16	0x3e9f9c4c	0.31173933
17	0xbdccb623	-0.09995677
18	0xbfc3f0f8	-1.5307913
19	0xbf2b235f	-0.66850847
20	0xbe8e88ee	-0.27838844
21	0xbfe77a54	-1.8084207
22	0x3fa573ed	1.2926003
23	0xbf84d97f	-1.0378875
24	0x3f3ff52a	0.74983466
25	0xbf231763	-0.6370756
26	0x3f224d1e	0.6339892
27	0xbfe4d18d	-1.787645
28	0xc048ad7c	-3.1355886
29	0x3f984234	1.1895204
30	0xbfb2f46b	-1.398084
31	0x3f6d8099	0.9277435
32	0xbf072dc2	-0.52804196
33	0xbfc946a8	-1.5724688
34	0xbf81d38d	-1.0142685
35	0xbefb8674	-0.49126017
36	0xbfe145e7	-1.7599458
37	0x3da22196	0.07916562
38	0xbfe64095	-1.7988459
39	0xbf89d890	-1.0769215
40	0x3ee0238d	0.43777123
41	0xbf1a7310	-0.6033182
42	0xbeecc85b	-0.4624661
43	0xbcd64598	-0.026156232
44	0x3f0a811f	0.54103273
45	0xbf9abd82	-1.2089083
46	0xbfa81c69	-1.313367
47	0x3fe801a8	1.8125505
48	0x3fa413d1	1.2818547
49	0xbfea78bb	-1.8318094
50	0x3ecf2614	0.4045874
51	0x400323b2	2.0490537
52	0xbf281a17	-0.6566481
53	0xbf476e3d	-0.77902585
54	0xbeca6d4f	-0.3953652
55	0x3f20db37	0.62834495
56	0xbf132810	-0.57483006
57	0xbf88bb80	-1.068222
58	0xbf7a4136	-0.97755754
59	0xbcbbb175	-0.022911767
60	0x400b478e	2.1762424
61	0xbfd554cb	-1.6666502
62	0xbebd4b9a	-0.36971742
63	0x3f8f2df3	1.1185898
