ad_attack/chkpt_files/fastai_cnn_Cnet_underfit_3epochs_splitDataset_weights.pth (torch, 256613 bytes, 6 tensors)

conv1.weight f4 [4, 1, 7, 7]
0	0xbd462085	-0.048370857
1	0x3d4101f3	0.047121
2	0xbde663e3	-0.11249521
3	0x3d7982d2	0.060915776
4	0x39a60d90	0.00031672092
5	0x3dec225a	0.115299895
6	0xbdea759d	-0.11448214
7	0x3dcfae37	0.10140651
8	0x3d19e6d3	0.037573647
9	0xbd8715fd	-0.06595991
10	0x3cb7d72b	0.022441467
11	0x3d906cbd	0.0705199
12	0xbd45d684	-0.04830028
13	0x3e0d2f91	0.13787676
14	0xbd977ba3	-0.07396629
15	0xbd66f905	-0.056389827
16	0x3e12d44c	0.14338797
17	0xbcbea07a	-0.02326988
18	0x3d5fcd82	0.054639347
19	0x3d823233	0.06357231
20	0xbe01a289	-0.12659658
21	0x3ca67860	0.020321071
22	0xbcbaeb0e	-0.022817161
23	0xbde3dec7	-0.11126476
24	0x3e1ab2e9	0.15107311
25	0x3d9d9be3	0.07695749
26	0xbd7728a7	-0.060341503
27	0x3dec5ca7	0.115411095
28	0x3e12736a	0.1430184
29	0xbd238190	-0.039918482
30	0xbe0428d4	-0.129062
31	0xbbeabf04	-0.007163884
32	0xbd16e208	-0.036836654
33	0x3ddd1443	0.1079488
34	0xbd9e88c5	-0.077409305
35	0x3dc9db66	0.098563
36	0x3d3ac675	0.04559942
37	0x3bba3efd	0.0056837783
38	0xbe0b1718	-0.13583028
39	0xbd2b9da0	-0.04189837
40	0xbe03062a	-0.1279532
41	0x3e14bd8c	0.14525431
42	0xbe004e44	-0.12529856
43	0xbd4d7d9e	-0.050168626
44	0x3d1d6c15	0.038433153
45	0xbd3bd5fc	-0.04585837
46	0xbdc66c07	-0.09688573
47	0xbd98a00e	-0.07452403
48	0xbceb4849	-0.028720992
49	0x3dedc97e	0.11610697
50	0x3d25320e	0.04033094
51	0x3ddaea5d	0.106892325
52	0x3d6365d4	0.055517033
53	0xbdd6c814	-0.104873806
54	0xbd9299eb	-0.07158264
55	0xbce22baa	-0.027608711
56	0x3d9623d9	0.07331056
57	0x3e121c10	0.14268517
58	0xbd5d23fb	-0.05398939
59	0xbd8d72bf	-0.06906652
60	0x3da7db99	0.08196182
61	0x3d139fa9	0.036040936
62	0x3cc37618	0.023860022
63	0x3dffc4d9	0.124887176
64	0x3d7098d0	0.058739483
65	0xbde6291f	-0.11238312
66	0x3cf2428f	0.029572753
67	0xbd67ad55	-0.056561787
68	0xbdfa7d04	-0.12230876
69	0xbd97a5fc	-0.07404706
70	0xbdb9e987	-0.09077745
71	0x3d407bc1	0.04699302
72	0x3e084846	0.1330882
73	0xbc3c9397	-0.011509798
74	0x3c9cef35	0.019157032
75	0x3dbb094b	0.09132632
76	0xbd17afb2	-0.03703279
77	0xbd4ca479	-0.04996154
78	0xbd5ed66c	-0.054403707
79	0xbcba9307	-0.022775186
80	0xbd9390e9	-0.07205374
81	0x3dbea381	0.0930853
82	0xbda0fdb7	-0.07860892
83	0xbd16533c	-0.036700472
84	0xbbf93a2d	-0.007605812
85	0xbe02dbda	-0.12779179
86	0xbd2d9139	-0.042374823
87	0x3cab2e86	0.020896208
88	0x3bf1cc13	0.007379064
89	0xbd483a7e	-0.048883907
90	0xbdbdc261	-0.092655905
91	0x3d0bd2a7	0.03413644
92	0xbdce03b3	-0.10059299
93	0xbe0ec382	-0.13941768
94	0xbd97bda8	-0.07409221
95	0x3d170c5b	0.036877017
96	0xbd62666e	-0.055273466
97	0xbdabf26f	-0.0839585
98	0xbcbf9a5b	-0.023389032
99	0x3e1dcb95	0.15409692
100	0x3db00de4	0.085963994
101	0x3d066bc0	0.032817602
102	0xbd61f8d5	-0.055168945
103	0xbd8dc1da	-0.0692174
104	0x3d47a527	0.048741486
105	0xbd15bc11	-0.036556307
106	0xbc8d2b01	-0.01723242
107	0x3dfbfef8	0.12304491
108	0x3a417cb8	0.000738095
109	0xbd64ab3c	-0.055827364
110	0x3d996caf	0.07491433
111	0x3d803e84	0.06261924
112	0xbdfb74c9	-0.122781344
113	0xbe06581f	-0.13119553
114	0x3dde6611	0.10859311
115	0xbd328dc9	-0.043592248
116	0xbd5f544c	-0.05452375
117	0xbdfe3515	-0.12412468
118	0x3e08ec75	0.13371451
119	0xbd534d5a	-0.05158744
120	0xbd7ae798	-0.06125602
121	0xbd82678e	-0.06367408
122	0xbe0013cb	-0.1250755
123	0xbc5bfdbf	-0.013427197
124	0x3dfbef49	0.123014994
125	0xbdf9b59c	-0.12192842
126	0xbcd00bf6	-0.025396328
127	0xbcb931c7	-0.022606743
128	0xbe166e9f	-0.14690636
129	0xbbd3bb9a	-0.006461573
130	0xbde6cf82	-0.11270048
131	0xbddbd9c3	-0.10734894
132	0xbd82a041	-0.06378222
133	0xbc5adc6a	-0.013358215
134	0xbe1eee69	-0.15520634
135	0xbdded0e9	-0.1087969
136	0x3bbaa4d5	0.005695919
137	0xbd1b5c71	-0.037929956
138	0xbde4e9f8	-0.111774385
139	0xbd5519f6	-0.05202671
140	0x3dad4ea0	0.08462262
141	0x3d3674df	0.04454505
142	0xbdd3c3ce	-0.10340081
143	0xbe1df6b4	-0.15426141
144	0xbe04d490	-0.12971711
145	0x3c69b449	0.014264175
146	0xbd61aee9	-0.055098448
147	0x3c0a2942	0.008432688
148	0xbdbe5d1b	-0.09295102
149	0xbd166caa	-0.036724724
150	0xbd3e328d	-0.046434928
151	0x3dc46348	0.09589249
152	0x3e1c259c	0.15248722
153	0x3e0b4b3b	0.13602917
154	0x3d95feb4	0.073239714
155	0xbdadf330	-0.0849365
156	0xbdf8e7a2	-0.121535555
157	0xbdce14ed	-0.10062585
158	0xbcdab9b1	-0.026699873
159	0xbc062fc1	-0.008190096
160	0x3e06e532	0.13173369
161	0xbd9592cf	-0.07303392
162	0xbdb517af	-0.08842408
163	0xbdd6fccf	-0.10497438
164	0x3ca0f9d4	0.019650377
165	0xbdc9a6e7	-0.09846287
166	0x3be4dbb5	0.006984199
167	0x3bd9d66f	0.006647877
168	0x3bc2203f	0.005924254
169	0xbde081dd	-0.109622695
170	0x3dd86219	0.10565586
171	0x3e0c0077	0.13672052
172	0xbdc30a2e	-0.09523426
173	0xbdb093a6	-0.08621912
174	0xbd8cabbe	-0.06868695
175	0x3dfbe82e	0.12300144
176	0xbe1a55e7	-0.15071832
177	0x3daa1acd	0.08305893
178	0xbd8c9873	-0.06865015
179	0x3dcd9f1e	0.10040115
180	0x3da21352	0.07913841
181	0x3d5929d8	0.05301842
182	0x3c17bc6b	0.009261231
183	0xbd88d426	-0.06681089
184	0xbaa74e13	-0.0012764357
185	0x3d81e820	0.063431025
186	0xbde074ce	-0.10959779
187	0x3df72137	0.12066882
188	0xbe0272fc	-0.12739176
189	0x3d5a2d62	0.053265937
190	0xbd62c21c	-0.0553609
191	0x3d27dd0e	0.0409823
192	0x3e1ce628	0.15322173
193	0x3dee2801	0.11628724
194	0x3cb3bb77	0.021939976
195	0x3c3fb0d7	0.011699877

conv1.bias f4 [4]
0	0xbdc08604	-0.094005615
1	0x3e163439	0.14668359
2	0xbdebb686	-0.11509423
3	0xbd581ebb	-0.05276368

fc1.weight f4 [128, 484]
0	0xbd17b7fa	-0.037040688
1	0x3c8e3df2	0.017363522
2	0xbb09378b	-0.0020937647
3	0xbc7cb022	-0.015422853
4	0x3cc95d01	0.02458048
5	0x3cd57446	0.02605642
6	0xbca8b6f5	-0.020595053
7	0xbd0b9304	-0.034075752
8	0xbcb5ecb3	-0.022207594
9	0x3cf38507	0.029726518
10	0xbc81534f	-0.015786795
11	0x3d20cc8f	0.039257582
12	0xbb51703b	-0.0031957764
13	0xbd2888f8	-0.04114625
14	0xbd01cd18	-0.031689733
15	0x3cd2e5df	0.025744377
16	0xbca964e8	-0.020677999
17	0x3cbc9629	0.02302082
18	0xbca0d598	-0.0196331
19	0x38decc42	0.00010623831
20	0xbd2981a0	-0.041383386
21	0xbd17cd0b	-0.03706078
22	0x3c90f31a	0.017694045
23	0xbcba575a	-0.02274673
24	0xb85bb6df	-5.238398e-05
25	0xbc673159	-0.0141108865
26	0xbb090c43	-0.002091185
27	0xbd377805	-0.044792194
28	0xbb9d04cd	-0.004791832
29	0xbb5ef1bb	-0.0034018594
30	0x3d3cde4d	0.04611044
31	0x3cdee0fb	0.027206888
32	0x3c38899f	0.01126328
33	0xbd0bcf7b	-0.034133416
34	0xbc364b69	-0.011126378
35	0xbcaebc47	-0.021330012
36	0xbbc2d333	-0.005945587
37	0xbc1a0f72	-0.0094030965
38	0xbd14ff1b	-0.0363761
39	0xbd2ad420	-0.041706204
40	0xbc5ccca9	-0.013476529
41	0xbd06b403	-0.032886516
42	0xb8654b9a	-5.4668264e-05
43	0xbc631eac	-0.013862293
44	0xbc9ff880	-0.019527674
45	0xbd331c1f	-0.04372799
46	0xbc1e019d	-0.009643939
47	0x3b390b61	0.0028235542
48	0x3c10741c	0.008816745
49	0xbd0940d9	-0.03350911
50	0x3b6971af	0.003562074
51	0x3bef1cc8	0.007297132
52	0xbc042407	-0.00806523
53	0xbd09d593	-0.033650946
54	0x3d15d998	0.036584467
55	0xbcd5b5ab	-0.026087603
56	0xbbe1dec3	-0.0068930103
57	0x3c3357bc	0.0109462105
58	0x3d0c53f4	0.03425975
59	0x3adbaf66	0.0016760647
60	0xbc741e87	-0.014899856
61	0xbd19cabc	-0.03754686
62	0x3ca11929	0.019665318
63	0x3d111fbf	0.035430666
64	0xbc87da61	-0.016583623
65	0xbd2c9c28	-0.04214111
66	0x3bd1bd74	0.0064007584
67	0x3c47d823	0.012197527
68	0xbcbf45f8	-0.023348793
69	0x3d1ce76b	0.038306635
70	0x3d0ec452	0.034855194
71	0xbd115863	-0.035484683
72	0x3c8fac28	0.017538145
73	0xbb832245	-0.004001888
74	0xbc83bffe	-0.01608276
75	0xbd29d803	-0.04146577
76	0x3c2b2248	0.010445185
77	0x3baf4d78	0.005349811
78	0x3c88b5f2	0.01668832
79	0x3d1b747b	0.03795288
80	0xbcca7d9e	-0.024718102
81	0x3c4d9055	0.0125466185
82	0x3a645f6f	0.00087117305
83	0x3c4b6ad7	0.012415609
84	0xbd182f1b	-0.0371543
85	0x3d469028	0.048477322
86	0x3cdec617	0.027194066
87	0x3d248a24	0.040170804
88	0xbd36f112	-0.044663496
89	0x3b005999	0.0019584654
90	0xbc3260ec	-0.010887366
91	0x3cca094a	0.024662632
92	0x3be09da2	0.006854729
93	0x3d002d83	0.031293403
94	0x3d1ef929	0.038811836
95	0x3d08b797	0.03337821
96	0x3cc5efb7	0.024162157
97	0xbcd55a0b	-0.026043912
98	0xbca9b96a	-0.020718295
99	0xbd04287b	-0.032265168
100	0xbd2c2da0	-0.0420357
101	0xbc665078	-0.014057271
102	0x3d3a22a2	0.045443185
103	0xbcfe6da9	-0.03105815
104	0x3d426c27	0.047466423
105	0x3d088ce3	0.033337485
106	0x3d212221	0.03933919
107	0xbd02d722	-0.031943448
108	0xbd0c6077	-0.034271684
109	0x3a5d56b7	0.00084434025
110	0x3c0f7e8e	0.0087582
111	0x3b08aa71	0.0020853544
112	0xbd405d1d	-0.0469638
113	0xbc602931	-0.013681696
114	0xbca0185a	-0.019542862
115	0x3cfed743	0.031108504
116	0xbceb6571	-0.028734894
117	0xbcacbb30	-0.021085352
118	0xbcf80f3a	-0.030280698
119	0x3ce47b3e	0.027890798
120	0x3b3d1dc6	0.0028856858
121	0x3d022369	0.03177205
122	0xbd0fe2ff	-0.03512859
123	0xbc87b6e7	-0.016566707
124	0x3cbd2d5a	0.023092914
125	0x3cff8195	0.03118972
126	0x3bd803af	0.006592236
127	0xbb6c2037	-0.0036029944
128	0xbccff63b	-0.025385967
129	0xbd1b5e5a	-0.037931778
130	0xbcdad14e	-0.026711132
131	0xbc7fd83d	-0.01561552
132	0xbca78764	-0.020450301
133	0xbc80f840	-0.015743375
134	0x3d0ad768	0.033896834
135	0xbcc97a1b	-0.024594357
136	0x3a835e37	0.0010022585
137	0xbc86553f	-0.01639807
138	0x3cef2927	0.029194428
139	0x3cd001c7	0.025391473
140	0xbc612c10	-0.0137434155
141	0x3d5cb383	0.053882133
142	0xbc9fe398	-0.019517705
143	0x3d387b36	0.045039378
144	0x3ca9745f	0.020685373
145	0xbcb86481	-0.022508861
146	0xbb78c022	-0.0037956317
147	0xbc4d5f19	-0.01253488
148	0x3d4a57bd	0.04940008
149	0xbd07972f	-0.033103164
150	0x3ccdfd7a	0.025145281
151	0x3d3b02e9	0.045657072
152	0xbcb099e4	-0.021557756
153	0x3d294a39	0.04133055
154	0xbc8f8b51	-0.017522486
155	0x3c517a81	0.012785555
156	0x3c7bc94d	0.015367818
157	0xbcdfc7fd	-0.027317042
158	0x3c3dfb85	0.011595611
159	0xbb140c5c	-0.0022590375
160	0xbd045160	-0.032304168
161	0x3cd47bbf	0.025937913
162	0x3ce437ac	0.027858578
163	0xbd09ae65	-0.03361358
164	0xbbf97252	-0.007612505
165	0xbc2e5985	-0.01064146
166	0x3d291d46	0.041287683
167	0xbcb47ba0	-0.022031605
168	0x3cd3a75c	0.02583664
169	0x3c86e0b7	0.016464574
170	0x3c53d3dc	0.012928929
171	0xbcea206f	-0.028579919
172	0xbc858255	-0.016297499
173	0x3c16d188	0.00920523
174	0xbccbd4e5	-0.02488179
175	0x3cc6e152	0.024277363
176	0xbc9754c4	-0.018473037
177	0x3d0f3683	0.034964096
178	0x3ccf23dd	0.025285656
179	0xbd51ae6b	-0.05119173
180	0xbaef2172	-0.001824422
181	0xbc21cf03	-0.009876016
182	0x3d1920d1	0.03738481
183	0x3d495f7c	0.049163327
184	0x3cbb22ef	0.022843806
185	0xbcd9b442	-0.026575211
186	0xbaabb867	-0.0013101221
187	0x3d31ef15	0.043440897
188	0xbcee1b5f	-0.029065786
189	0x3d0ea252	0.03482277
190	0x39d02ce9	0.00039706312
191	0xbc8f4222	-0.01748759
192	0x3bb9d0b1	0.00567063
193	0x3c1b95ad	0.009496135
194	0x3ca77d96	0.020445626
195	0x3ca897de	0.020580228
196	0xbd2dc764	-0.04242648
197	0xbd098df8	-0.033582658
198	0x3d035fa8	0.032073647
199	0xbc9145c3	-0.01773346
200	0xbd434252	-0.04767067
201	0x3b33fe66	0.0027464866
202	0x3d3347aa	0.043769516
203	0xbd1db982	-0.038506992
204	0xba22d43c	-0.0006211435
205	0x3d43a854	0.047767952
206	0xbc330a4f	-0.010927751
207	0x3a8b498b	0.0010626776
208	0x3c170bc0	0.00921911
209	0xbcfaae5f	-0.030600725
210	0x3caf8658	0.021426365
211	0xbc4f5f0f	-0.012656941
212	0x3cad707a	0.021171797
213	0xbc657c3f	-0.014006673
214	0xbc4053a2	-0.01173869
215	0x3c0fbbfe	0.008772848
216	0xbb898083	-0.004196228
217	0x3d0dfdbf	0.03466582
218	0xbcfd8c6b	-0.030950746
219	0xbbace336	-0.005276109
220	0xbb187449	-0.002326267
221	0x3c868ee9	0.016425567
222	0xbcd4a2d4	-0.025956549
223	0xbd1c923e	-0.038225405
224	0xbb53eaed	-0.0032336072
225	0xbacfa4ce	-0.0015841962
226	0xbc92717a	-0.017876375
227	0x3a887204	0.0010409956
228	0xbc8edece	-0.017440226
229	0xbc2bc7af	-0.01048462
230	0x3d1f25d8	0.03885445
231	0xbbd15a6c	-0.006388953
232	0x3b698fb0	0.0035638623
233	0xbd02a2e9	-0.031893644
234	0xbcfa3196	-0.030541223
235	0xbcbf2acd	-0.023335839
236	0x3d47c2ad	0.04876964
237	0x3cc0bb61	0.02352685
238	0xbc8b075a	-0.016971279
239	0x3ce7f7f2	0.028316472
240	0xbc7dbf91	-0.0154875675
241	0xbb37c936	-0.0028043515
242	0x3cce950d	0.025217557
243	0xbd1a67cd	-0.03769665
244	0x3d54e185	0.051972885
245	0x3cec3a40	0.02883637
246	0xbcdec487	-0.02719332
247	0x3c3bed5b	0.011470164
248	0x3cecb9c3	0.028897172
249	0xbbaeaaa3	-0.0053304
250	0xbc0fb71b	-0.008771683
251	0x3cd688e7	0.026188327
252	0xbd2dcd5b	-0.04243217
253	0xbc8df2b0	-0.017327636
254	0xbc2340ce	-0.009964181
255	0xbcae4230	-0.021271795

fc1.bias f4 [128]
0	0xbd15ec1b	-0.03660212
1	0x3d156c5f	0.036480304
2	0xbcd58540	-0.026064515
3	0xbc9479c3	-0.018124467
4	0xbca3fc73	-0.020017838
5	0x3d25a349	0.040438924
6	0xbcf887c5	-0.030338177
7	0xbccbd2b9	-0.024880754
8	0xbb220af5	-0.002472577
9	0x3c80246f	0.015642373
10	0xbd29efee	-0.04148858
11	0xbcfeeaa2	-0.031117741
12	0xbcffe08e	-0.031235006
13	0xbcdea02b	-0.027175983
14	0xbbfc3723	-0.0076970025
15	0xbced1cf4	-0.02894447
16	0xbcf94bee	-0.030431714
17	0x3d0e180b	0.034690898
18	0x3d06a763	0.032874476
19	0x3c652b74	0.013987411
20	0x3c0f1681	0.008733393
21	0x3c9af268	0.018914416
22	0xbd1375dc	-0.03600107
23	0x3d353621	0.044241074
24	0x3bb8e1d2	0.0056421543
25	0xbce96aa0	-0.028493226
26	0xbbc1287d	-0.005894719
27	0x3cbd90a1	0.023140253
28	0x3b461e18	0.003023034
29	0xbbe5a771	-0.007008486
30	0xbce4fb9a	-0.027952004
31	0xbca8f864	-0.020626254
32	0x3d1c5832	0.038170047
33	0xbcdd6c58	-0.027029201
34	0xbcccbc3b	-0.024992099
35	0xbce43159	-0.027855562
36	0x3c1158a0	0.0088712275
37	0xbc8b3826	-0.016994547
38	0x3d142970	0.03617233
39	0x39aa9902	0.00032538926
40	0x3c030b8c	0.007998358
41	0x3cb75a37	0.022381885
42	0xbd24b861	-0.0402149
43	0x3d00417e	0.03131246
44	0xbd0e018c	-0.034669444
45	0x3d1b3ca5	0.037899632
46	0x3c8944e0	0.016756475
47	0x3ce777d3	0.028255379
48	0x3cfd96c6	0.030955683
49	0xbd1157e2	-0.035484202
50	0x3ce7cb1a	0.028295089
51	0xbc0d1f3e	-0.008613406
52	0x3cdb289f	0.026752768
53	0x3c06a6ec	0.008218508
54	0xbccdc3a0	-0.025117695
55	0xbccaa5d6	-0.02473728
56	0xbc2fc5a7	-0.010728276
57	0x3d20d62e	0.039266758
58	0xbd1b00fd	-0.03784274
59	0x3cf3c932	0.029759023
60	0xbc9a5f8e	-0.018844392
61	0xbb883dff	-0.004157781
62	0x3cccbc2f	0.024992077
63	0xbbe9ddff	-0.0071370597
64	0x3c9e9b66	0.01936121
65	0xbc883f14	-0.01663164
66	0x3c27fc33	0.010253
67	0xbcc09b71	-0.02351162
68	0xbcd3e78e	-0.02586725
69	0x3d242901	0.040078167
70	0xbccf4eef	-0.025306193
71	0xbd0e3ef8	-0.03472802
72	0x3d002fda	0.031295635
73	0x3c440124	0.011963163
74	0xbc75c533	-0.015000629
75	0x3cafb94a	0.021450657
76	0x3c9748f1	0.018467398
77	0x3ccba44e	0.02485862
78	0x3c129f26	0.008949077
79	0x3ac4ad54	0.0015005269
80	0xbbb6ed98	-0.0055825226
81	0xbca287dd	-0.019840175
82	0xbaa7521a	-0.0012765557
83	0xbd2ac80e	-0.041694693
84	0xbc224111	-0.009903208
85	0x3ce14da5	0.027502844
86	0xbd29ea33	-0.041483115
87	0xbb5d22c0	-0.0033742636
88	0x3cb5903c	0.022163503
89	0xbc6134c9	-0.013745495
90	0x3d115625	0.035482544
91	0xbc9577bc	-0.01824557
92	0x3ce93603	0.028468138
93	0xbcfaa0a4	-0.030594178
94	0x3cf2fb37	0.029660804
95	0xbcca7797	-0.024715228
96	0xbbaef1b1	-0.0053388705
97	0x3be93543	0.007116945
98	0x3c80d7a1	0.01572782
99	0x3cb4964a	0.02204432
100	0xbc6588f9	-0.014009708
101	0x3c3f0745	0.011659448
102	0x3d06e1ea	0.032930292
103	0x3d264aae	0.040598564
104	0xbcda7224	-0.026665755
105	0x3b60cc49	0.003430145
106	0xbc025d32	-0.00795679
107	0xbca249fe	-0.019810673
108	0x3bc58637	0.0060279625
109	0xbc8cb580	-0.01717639
110	0x3bb00a0d	0.005372292
111	0xbcfd20a8	-0.03089936
112	0xbbe13f5e	-0.006874009
113	0xbbd45fcf	-0.006481148
114	0xbd09772a	-0.03356091
115	0xbd33f008	-0.043930084
116	0x3d4ccc37	0.049999442
117	0xbd279eec	-0.040923044
118	0x3cfdef12	0.030997787
119	0xbd08d8d2	-0.0334099
120	0x3c860ea6	0.016364407
121	0x3bc78aca	0.006089543
122	0xbcd8db56	-0.026471775
123	0x3ccf8cbd	0.025335664
124	0x3ce2c9b1	0.027684065
125	0xbd24dc57	-0.040249195
126	0xbc4f2fc1	-0.012645663
127	0xbd38b0bd	-0.045090426

fc4.weight f4 [10, 128]
0	0xbd88ab41	-0.06673289
1	0x3d152914	0.03641613
2	0x3da9093a	0.08253713
3	0x3d41d826	0.047325276
4	0x3d0e45f0	0.034734666
5	0x3cc1f68d	0.023677135
6	0x3da8710c	0.08224687
7	0xbd9c66a8	-0.076367676
8	0x3d3cba0a	0.04607586
9	0x3b71ddaa	0.0036905804
10	0xbd3e71c7	-0.046495225
11	0x3d9fa4ba	0.07795091
12	0xbcaeb122	-0.021324698
13	0x3c0b0a06	0.0084862765
14	0xbbf5a3c8	-0.007496331
15	0xbd009e59	-0.031401012
16	0x3bfbf6eb	0.007689347
17	0x3c221cf1	0.0098945955
18	0xbd1b65de	-0.037938945
19	0xbd6d89f2	-0.057992883
20	0x3d117ded	0.035520483
21	0xbcea9bda	-0.028638769
22	0x3d93e2f8	0.07221025
23	0xb9d30e8c	-0.00040255894
24	0x3b4b623a	0.003103389
25	0xbcf39da7	-0.02973826
26	0x3d5f88b2	0.054573722
27	0x3dcc6b3d	0.099813916
28	0xbc48af54	-0.012248833
29	0xbdcf34d3	-0.10117497
30	0xbd6f42cb	-0.058413308
31	0xbd7bf18b	-0.06150965
32	0xbd733c67	-0.059383776
33	0x3dc8d3c7	0.09806018
34	0xbd6a666a	-0.057226576
35	0x3d5d1966	0.0539793
36	0x3d725f43	0.05917288
37	0xbd1bcc10	-0.038036406
38	0xbcf9ef56	-0.030509632
39	0xbd308b68	-0.0431017
40	0x3d67a59d	0.056554426
41	0x3ce903c9	0.028444188
42	0x3d9622b0	0.07330835
43	0x3d7c5489	0.061604057
44	0xbd78a17c	-0.06070088
45	0xbd1a74fa	-0.037709214
46	0xbd7330a7	-0.05937257
47	0xbd75cefd	-0.060011853
48	0xbcbc577a	-0.02299093
49	0xbcbfe27f	-0.023423431
50	0xbd890e4a	-0.066921785
51	0xbd6e437c	-0.058169827
52	0xbd24a68f	-0.040197905
53	0x3c4c9050	0.012485579
54	0xbd0ebe21	-0.03484929
55	0x3d94e28f	0.07269775
56	0x3ce9b179	0.028527008
57	0xbd84df2c	-0.06487879
58	0xbd3fc1df	-0.04681575
59	0xbd8660a8	-0.065614045
60	0xbd665b84	-0.05623962
61	0x3c2e2b86	0.010630494
62	0x3d286b87	0.04111817
63	0xbd191c44	-0.03738047
64	0x3d82a032	0.06378211
65	0xbdad5583	-0.08463576
66	0xbd4d5ab8	-0.050135344
67	0xbd02914e	-0.031876855
68	0xbd4bda00	-0.049768448
69	0x3ce22f72	0.027610514
70	0xbce31470	-0.027719706
71	0xbd380e4c	-0.04493551
72	0xbd3b44e7	-0.045720007
73	0xbd179fa4	-0.03701748
74	0xbc0997a1	-0.008397968
75	0xbd2f0fa8	-0.04273954
76	0x3c75b6b1	0.01499717
77	0xbdbbb015	-0.09164444
78	0x3ca4e841	0.020130279
79	0x3d349004	0.044082657
80	0x3cf9cee4	0.030494161
81	0xbd86845e	-0.06568216
82	0xbc3db06c	-0.011577707
83	0xbc717825	-0.014738117
84	0xbc4d1503	-0.012517217
85	0x3d83ee18	0.06441897
86	0xbcbdc9e7	-0.023167564
87	0xbccf0a7a	-0.02527355
88	0x3d9a60cf	0.07537996
89	0xbce229db	-0.027607849
90	0x3d2b2657	0.04178461
91	0x3b96d77f	0.004603326
92	0x3d10ede0	0.035383105
93	0xbda6d6e1	-0.08146454
94	0x3d78fcaf	0.060787853
95	0x3d95090b	0.072771154
96	0xbcc5c21c	-0.02414041
97	0xbd2ecd89	-0.042676482
98	0x3d84ebdf	0.06490301
99	0x3d04028c	0.03222899
100	0x3d13635d	0.035983432
101	0xb9e2fde3	-0.0004329524
102	0x3d74878c	0.05969958
103	0xbcedceb5	-0.02902923
104	0x38b8c3ac	8.8102504e-05
105	0x3db75075	0.08950893
106	0xbda2fb0f	-0.07958042
107	0xbbcba744	-0.006215008
108	0x3d99cc64	0.075096875
109	0x3d054af5	0.032542188
110	0xbd8a8b55	-0.06764857
111	0xbc7ebd83	-0.015548113
112	0x3d5b5dbb	0.053556185
113	0x3d098773	0.03357644
114	0x3cc0689d	0.023487383
115	0x3d2fdcdb	0.042935234
116	0x3d6ed901	0.05831242
117	0xbc75d665	-0.015004729
118	0xbdadfc82	-0.08495428
119	0x3da2556c	0.07926449
120	0xbdb9e05e	-0.09075998
121	0x3d4d2b3f	0.05009007
122	0x3cc5fc94	0.02416829
123	0x3d81e3c0	0.06342268
124	0xbd7d4a01	-0.061838154
125	0xbd54adfb	-0.051923733
126	0x3d1f7ea2	0.038939126
127	0xbcb2a636	-0.021807771
128	0x3d8b5b5b	0.06804534
129	0x3cc4358c	0.023951314
130	0xbd9d1e78	-0.07671827
131	0x3d22a274	0.03970571
132	0x3d3d867d	0.046270836
133	0x3bf3946a	0.007433464
134	0x3d54d4b0	0.051960647
135	0x3d5bb384	0.053637996
136	0x3da2e4c8	0.07953793
137	0xbd08acb8	-0.033367842
138	0x3afa78a2	0.0019109438
139	0xbd22c0c2	-0.03973461
140	0xbdce5aa1	-0.1007588
141	0x3d600d44	0.05470015
142	0x3d8b8d40	0.06814051
143	0xbcd87a49	-0.026425498
144	0x3cbc4e52	0.022986565
145	0x3d903a2b	0.07042345
146	0xba8d00ad	-0.0010757648
147	0x39c20704	0.0003700779
148	0xbda74283	-0.08166983
149	0xbd1b9bf0	-0.03799051
150	0x3d6112b6	0.054949485
151	0x3c6867cf	0.014184906
152	0xbd8c81ef	-0.0686072
153	0xbd966010	-0.07342541
154	0xbda33a79	-0.07970137
155	0x3b264952	0.0025373292
156	0x3d9fd174	0.07803622
157	0xbd174a87	-0.03693631
158	0x3d291d0c	0.041287467
159	0xbbf44b5a	-0.0074552717
160	0xbcaaf69a	-0.020869542
161	0xbdd09b94	-0.10185924
162	0xbbd62119	-0.0065347073
163	0x3d8f588b	0.0699931
164	0xbd96b646	-0.07358985
165	0x3d166571	0.036717836
166	0x3db0281b	0.086013995
167	0xbd003b07	-0.031306293
168	0xbd99bbc1	-0.07506514
169	0xbd2d5f06	-0.04232695
170	0xbd5f5049	-0.054519925
171	0x3d5461bd	0.051851023
172	0x3cb43fbf	0.022003053
173	0xbd58da7e	-0.052942745
174	0x3d39e70d	0.045386363
175	0xbd75d96d	-0.060021807
176	0x3d67b470	0.056568563
177	0xbb2516ae	-0.002519052
178	0x3d2edb6b	0.042689722
179	0xbd4129cb	-0.047158998
180	0xbd2fafc6	-0.04289224
181	0xbd687b85	-0.056758422
182	0xbdb033ea	-0.08603652
183	0xbd5e33ca	-0.05424861
184	0xbccbd895	-0.024883548
185	0x3d8f8362	0.07007481
186	0x3d5cd1d9	0.053911064
187	0xbdc80129	-0.09765846
188	0xbdbd91e1	-0.0925634
189	0xbd40a03f	-0.047027823
190	0xbd89fd78	-0.067377985
191	0xbd81c619	-0.06336612
192	0x3d55d4ca	0.052204885
193	0xbd86e256	-0.06586139
194	0xbd99258b	-0.07477864
195	0xbd6860d1	-0.056732956
196	0x3c5b540f	0.01338674
197	0x3d15b57d	0.036550034
198	0xbc727ded	-0.014800531
199	0xbdc56952	-0.09639229
200	0x3d5b75cc	0.053579137
201	0x3cbbe56b	0.022936543
202	0x3c84a3e7	0.016191436
203	0x3d7028e9	0.058632765
204	0xbda473b8	-0.08029884
205	0x3d567e40	0.052366495
206	0x3ab52ce5	0.0013822584
207	0x3d5c38fc	0.053765282
208	0xbd1b71d8	-0.037950367
209	0x3d570c0f	0.052501734
210	0xbd6106e5	-0.054938216
211	0xbdbcc472	-0.092171565
212	0xbda2fdc9	-0.07958562
213	0xbc9cbc03	-0.01913262
214	0xbcd03e00	-0.025420189
215	0x3d87af1c	0.06625196
216	0xbd55adc0	-0.052167654
217	0x3cc89588	0.024485365
218	0x3d3f9a12	0.046777792
219	0xbc182ab9	-0.00928753
220	0x3d9e46eb	0.0772837
221	0xbcc8a3c8	-0.02449216
222	0xbdc04dfb	-0.093898736
223	0xbc95fa96	-0.018307965
224	0x3c7f2752	0.01557334
225	0xbd9c3366	-0.07626991
226	0x3d042753	0.032264065
227	0xbdb4864a	-0.08814676
228	0xbd987a5b	-0.074452125
229	0xbc9340c9	-0.017975228
230	0x3d69969a	0.05702839
231	0x3dcc624b	0.099796854
232	0x3d8116b4	0.063031584
233	0xbc168778	-0.009187572
234	0x3d999e70	0.07500923
235	0x3d8a7700	0.06760979
236	0xbd6084a7	-0.054814007
237	0x3d6b2ede	0.057417743
238	0x3d4522ee	0.048129015
239	0xbcd9b0e3	-0.026573604
240	0x3d8d9389	0.06912906
241	0x3dca8971	0.09889496
242	0xbd50d11b	-0.05098067
243	0x3d52d67c	0.05147408
244	0xbd324110	-0.04351908
245	0xbd297948	-0.04137543
246	0xbd99a566	-0.075022504
247	0x3ca20cbb	0.019781461
248	0x3d8727a1	0.065993555
249	0xbd3b2083	-0.045685302
250	0xbd9aaa83	-0.07552054
251	0x3bef31ee	0.0072996533
252	0xbda3b396	-0.07993238
253	0xbdbbee2d	-0.09176288
254	0x3d7249d6	0.059152447
255	0x3d8bb5c4	0.068217784

fc4.bias f4 [10]
0	0xbd9288a0	-0.071549654
1	0x3ced1aee	0.028943505
2	0x3ca571ab	0.020195803
3	0x3daba41d	0.083809115
4	0x3da4c87e	0.08046053
5	0xbc87f9fb	-0.016598692
6	0x3d117330	0.035510242
7	0x3d36e829	0.044655
8	0x3d9b2f0c	0.07577333
9	0x3cea0716	0.028567832
