ad_attack/chkpt_files/fastai_cnn_weights.pth (torch, 90231 bytes, 8 tensors)

conv1.weight f4 [10, 1, 5, 5]
00000000: 25ad a73d 4333 4dbc 60cf 59be deae 66be
00000010: 7b05 53be b853 3a3e 51f9 0a3e 8175 7bbd
00000020: f2c8 323b a4d4 c1be 4f58 fdbd 3907 183e
00000030: 0dc1 b0bd 575b 74be 87a0 fdbd 3d30 ffbd
00000040: bce5 423d fdbf 5e3d 6ec7 fc3d afc4 913e
00000050: e723 ef3d 3406 553e ef48 8e3e 1b12 7d3e
00000060: 5ae1 5a3e fc2b 6abe ad5a 69be cf21 8cbe
00000070: 096b afbd 2ea4 87be a9db 7dbe 7e6c 72be
00000080: 855f 94bd d98a 17be 6fe5 ec3c f80d 4f3d
00000090: c31b bdbd 4236 e1bd 327d bcbc f423 b53c
000000a0: 7241 303e d4c8 003e c817 973e 2b44 dd3d
000000b0: 5945 613e e745 8e3d b806 913e 0dec 5e3e
000000c0: d6b1 9c3d d7e7 543c 1c65 983e 9201 843e
000000d0: b9af 2cbe 3bfb 3ebe a879 80bd 9954 9e3d
000000e0: 931a 523e 85ef a8be 2020 c4bd 9988 e0bd
000000f0: dd2c 923e 8a01 84bd cef0 adbe e1f2 7bbe
00000100: fc6e b7bc eb49 a7bc 3977 9ebd 5cec 84be
00000110: 6f11 86be d010 583e c846 f5bc 7f2a 86be
00000120: 729d 62be 7bbc 1f3e 003a 173e 8cf0 413e
00000130: e286 12be eb15 c9bd 4fa5 b03d d73c 2d3e
00000140: 1db4 4d3e 23a3 dcbc 7d24 94be 9445 56be
00000150: 2fb6 a93d d7eb 303e 41e0 3dbd 1c81 27be
00000160: 33bb 813d d9cc 97be 2fb9 553e a244 563e
00000170: 78da 82bd e27d 313c e6db 30be 2d7a 703d
00000180: 20ae 0e3e 401c 4f3e ac13 513e ca70 3a3e
00000190: 98d9 bb3b fe21 b93d 7692 633e d03a 353e
000001a0: 83c7 243e a0c9 b3bd 48e9 cebc 78f6 a63c
000001b0: bba5 893e ae16 413d 6d09 30be 703d 9bbe
000001c0: 2865 b6be 8acf 90be da67 1fbe 864d e6bd
000001d0: 1d66 903d 8289 5bbe 2182 a4be 2dcd 77be
000001e0: e0fc 8fbd 365a b13c 74fd 2b3e 5afc 273e
000001f0: 595f c43d a63d 3f3e 48a2 4f3e 70ae 14be
00000200: 1fbc d2bd 75fb 91be 552b 3c3e 38cd 213d
00000210: 20ea 463e 5fe4 b23d adf0 34bd 7d90 cbbd
00000220: feb5 cd3d a8cd eb3d 7e32 953d 7330 49bd
00000230: 6833 d43d 724b 07bd 22a1 be3c 04d0 8bbd
00000240: 56ae 0c3e ac0e 213e 56a2 353d d054 153e
00000250: 9ad2 14bd bb69 483e 0430 223e 186e a63d
00000260: 1535 5a3e 19a8 febc 10d8 553e 6761 bc3c
00000270: 7daf 843d c69c 643e fd74 0dbd 4ca2 e8bc
00000280: 2534 e23d acd0 9f3d 2712 343e 7a92 583e
00000290: a7bb 083e e2d5 263d 25ce 703e a7c5 63bd
000002a0: 97ce a1bd 93ed cabd d90b 463e 6cd3 0f3e
000002b0: ac72 e13d bba5 3fbd 4aa5 6fbe 1ec1 123e
000002c0: 6a97 a2be 5759 e2bd cf28 86be 6420 90bd
000002d0: 266a 4fbd 47c0 8bbe a42e 51be f878 0dbe
000002e0: a6c0 8c3e b1ad 4cbe a6b5 16be 3487 2cbe
000002f0: c0cf ce3d 790c 6c3d b9db 70be 5661 a9bd
00000300: ec67 bdbd a7a1 443d afe3 fc3d 28a1 47be
00000310: b2be 9abd aaa3 cfbd 26d0 653e f277 893e
00000320: a7d6 013c b6db 5d3e 1dc8 4a3c 5e7b 203e
00000330: 55d6 853e de0b 37be b41b a53d 7c9a b6ba
00000340: 4634 0d3e 10d3 403e 1e0b 52be 852e 3a3e
00000350: 8aa5 7b3d 5139 b83d fb37 9d3d f1fd bcbe
00000360: 32e2 9bbe 5e79 83be ae0f 8dbe 2add 25be
00000370: e5d7 6fbe 8535 b8bd 947d b2be 5919 3bbd
00000380: d961 3cbe 8beb 0e3d 1e75 65be 34c5 05be
00000390: c404 543e 93eb b5bd 7f4c 63be 3485 763c
000003a0: d47f 313d e066 123e 9f4b 473e accc c33c
000003b0: 1d98 aebd 6f5a 863e d6d1 983d e3ed 5bbe
000003c0: 8b1f 833e cccd 3b3e 3151 bcbd ee28 76be
000003d0: d5ed ccbd 16c1 57bd 955a 4ebe 5a26 64bd
000003e0: cdd4 2f3d 86a4 4a3e
0.081873216 -0.012524429 -0.21270514 -0.22527644 -0.2060756 0.18195999 0.13571669 -0.061391357
0.0027280417 -0.37857544 -0.12370359 0.14846505 -0.086305715 -0.23862968 -0.12384134 -0.124603726
0.047582373 0.054382313 0.12342726 0.2847037 0.1167677 0.20803148 0.2779002 0.24713938
0.21375027 -0.22868341 -0.22788496 -0.27369544 -0.08565337 -0.26492447 -0.24790825 -0.23674199
-0.072447814 -0.1479906 0.028917996 0.05055043 -0.09233811 -0.10996677 -0.023008917 0.02211187
0.17212465 0.1257661 0.2951033 0.10804018 0.2199911 0.069469266 0.28325438 0.21769734
0.07651107 0.012994728 0.2976464 0.25782448 -0.16863908 -0.18650524 -0.06273204 0.077309795
0.2051795 -0.3299524 -0.0957644 -0.10963554 0.28549853 -0.06445606 -0.33972782 -0.2460437
-0.022391789 -0.020420989 -0.07737584 -0.25961578 -0.26185176 0.21100163 -0.029940978 -0.26204297
-0.22130373 0.15599243 0.14768219 0.18939418 -0.14309266 -0.09818634 0.0862528 0.1691774
0.20088239 -0.026933258 -0.28934088 -0.2092498 0.08286702 0.17277466 -0.046356443 -0.16357845
0.063345335 -0.29648474 0.20871423 0.20924619 -0.06389326 0.010833235 -0.17271385 0.058710266
0.13933611 0.2022562 0.2041766 0.18207088 0.0057327263 0.090396866 0.22223839 0.17698216
0.16091733 -0.08778691 -0.025257722 0.020381197 0.26884255 0.04714077 -0.17191096 -0.3032031
-0.3562405 -0.2828334 -0.1556696 -0.11245255 0.070507266 -0.21439174 -0.3213053 -0.24199362
-0.07030654 0.021649461 0.16795903 0.16404858 0.095884986 0.18675861 0.20276749 -0.14519668
-0.102897875 -0.2851216 0.18375905 0.039502352 0.19425249 0.087349646 -0.04417484 -0.09939668
0.10044478 0.11513835 0.07285021 -0.04911847 0.103613675 -0.033030935 0.023270193 -0.06826785
0.13738379 0.15728253 0.04434427 0.14583135 -0.036333658 0.19571583 0.15838629 0.081264675
0.21309312 -0.031086015 0.20883203 0.022995664 0.06478784 0.2232543 -0.034535397 -0.028397702
0.11045102 0.07803473 0.1758505 0.21149626 0.13352834 0.04073132 0.23516138 -0.055608418
-0.07900732 -0.09908595 0.19340457 0.14045495 0.110082 -0.046788912 -0.23402897 0.14331481
-0.31756145 -0.110521965 -0.2620301 -0.07037428 -0.05063834 -0.27295133 -0.20427948 -0.13815677
0.2749073 -0.19988133 -0.14717731 -0.16848451 0.10098219 0.057629082 -0.23521318 -0.082705185
-0.09248337 0.048005726 0.12348115 -0.1949507 -0.075559035 -0.10138638 0.22442684 0.26849324
0.007924712 0.21665844 0.012376812 0.15672061 0.26140085 -0.1787562 0.080619246 -0.0013931538
0.13789472 0.18830514 -0.20512053 0.18181808 0.061437167 0.08995307 0.07676693 -0.36912492
-0.3044601 -0.25678533 -0.27551025 -0.16197649 -0.23422201 -0.08994583 -0.34861434 -0.04567847
-0.18396701 0.0348926 -0.22407958 -0.13063508 0.20704943 -0.08882823 -0.2219715 0.015046407
0.043334797 0.14297056 0.19462441 0.023901306 -0.08525107 0.2624087 0.07461898 -0.21477465
0.25610003 0.18340224 -0.091951735 -0.24039051 -0.100063 -0.052674375 -0.20151742 -0.055700637
0.042927552 0.19789323

conv1.bias f4 [10]
00000000: 1b30 9d3d a4ef 103e 0108 1f3e 50d5 0abe
00000010: 2433 ddbd 8f4a 54be 558a 59bd a3a0 0dbd
00000020: 2764 febd e024 afbd
0.07675191 0.14153916 0.15530397 -0.13557935 -0.1080077 -0.20731567 -0.05311044 -0.034577023
-0.12421446 -0.08551955

conv2.weight f4 [20, 10, 5, 5]
00000000: 1311 0f3d 431a 8abc f253 a23d d1ca 3e3d
00000010: 688d b6bc 5f76 3e3d 92bb 903d 8fbf 673d
00000020: 8a78 4c3d eeda 943d 4ee5 55bd 0569 833d
00000030: 87c0 483c bc97 483d a0ea 683d 7dfc b8bd
00000040: fe1f acbd aaf9 ebbb debc 3cbd ae9a 223d
00000050: ad99 0c3c ff97 3fbd dd2d b73c 43d0 6cbd
00000060: 3737 4abd 0bf1 363d 6473 383d ec2d 5ebd
00000070: 4cf7 0b3b 2179 11bc d770 923c 5301 2a3c
00000080: e3d7 a63d 374d 883d e7a7 293d 4d01 863d
00000090: 1167 bf3d 883a fe3c 4493 963d ff73 013d
000000a0: 03ba 853c cee8 0fbd f9f8 eebc 499f b7bd
000000b0: 5ee1 743c 6457 89bd 94e8 093d 19dd 373d
000000c0: e445 be3c 0571 86bd a2b3 0f3d 44bc 01bd
000000d0: bb91 193c 303d 25bd c265 00be 7134 5bbd
000000e0: 3c31 5cbd 03ef edbd 7a12 3cbe 67b7 36be
000000f0: 6117 ccbc a7a0 d73c 0c53 b4bc 335c bcbd
00000100: 9a8f 33be bf2e d53d d655 2b3d 9fab 883d
00000110: 2fed bdbc ab2d 88bd 0961 9e3d a5e8 6e3d
00000120: 675a 293d d2ed b93d 0ea9 1fba ae1f 89bd
00000130: a27f 963c 4eeb 703d f551 483b 1d35 d63c
00000140: a810 27bd 8fbc 3d3d 4017 543d f06d cc3d
00000150: 20a7 c73d 0ad5 3ebd 7c75 bfbd d547 d0bc
00000160: e5e8 ba3a 8e08 eabb fb86 6dbd 6b0e b2bd
00000170: 5e27 acbd 670e 94bc ac76 84bc 964b 453d
00000180: 78c3 98bd d299 16bd 7bf4 43bd 1e1d 42bd
00000190: 2dd4 0b3c c479 833d 15ef b63a f5c6 4c3d
000001a0: 8d49 143d da30 103c af53 8c3d 739c 133e
000001b0: fe56 573d a830 ab3c 7e43 253d 4754 003e
000001c0: 3579 143e a991 013e db32 8abc 0da9 a33c
000001d0: f714 423d 9250 363d 657f a63d ecc4 b3bd
000001e0: f535 9bbd 8287 d7bc 619b 80bd 2fa2 7e3c
000001f0: 5875 b73c 3b72 19bd d226 3a3d a4f0 01bd
00000200: cf63 0fbc b264 983b 5e8d d7bb 0e4e 80ba
00000210: a721 b83d 9145 a63d 9cbc 35bc 1fe6 983c
00000220: 0caf cbbc 1d94 f93c 8463 a03d 6bf9 b13d
00000230: c02d 68bd ca83 bfbb ebdf 15bd 77ba 883d
00000240: 4138 863d 8cc5 40bc 7176 0dbd 40d7 74bd
00000250: 8f79 3c3d 0005 953c d3bc 38bd e79e 4e3c
00000260: 8367 e2bc 3fe2 ebbd 0f66 abbd 7afd be3c
00000270: de7a 4a3d f098 eaba 5e22 c8bd bd1e abbd
00000280: 2f1a 253d 187e edbc 7890 b9bc d2ca bbbd
00000290: 7fd1 8fbd 1c6b 163d f21e babb 049f 623c
000002a0: e18d 43bc 6231 843d a7e8 46bd 7fa6 113d
000002b0: 9228 80bd 1da5 293d 4b2a 733d cb2d 4bbc
000002c0: ea6c a8bc 79d1 533c 551e acbd 83c3 eabd
000002d0: 7386 81bc db77 acbd cc98 61bd c0bc 8dbd
000002e0: a112 d3bd 6756 5e3c 2e33 96bd 9884 82bd
000002f0: 3e01 1bbe 1baf 15be 371a 8fbc 24f7 c4bc
00000300: 9056 b7bc c796 46bd d26a c7bc 8ec1 b13d
00000310: 4fb2 9b3d 133c 153e 8c16 073e 1115 743d
00000320: 39cc 46bd a8df b2bd c353 5d3c 9d71 6abd
00000330: d87c 023d ff75 7b3c 0696 343d bbc6 263e
00000340: d0d9 653d 1e5f 43bc bc0e 61bd 6906 a13d
00000350: fa12 f93d 704a 8e3d 3e53 8bbd 03a9 1639
00000360: a781 41bc 0838 483d 9b6f cd3d b4e0 d1bd
00000370: 3293 dcbd e8b4 dfbd 9f2b d2bd ecac 07bd
00000380: ccd1 aebd 501c aebc dab9 94bc 3754 2c3d
00000390: 72b1 5d3d bd4c 61bd b72b a8bc 68b6 253d
000003a0: 9876 aa3d e5c7 f63c 6fbf 1bbd a8d3 35bd
000003b0: 20ec 4a3d 3d02 c73c 4421 403d 35f5 963c
000003c0: 73d9 67bd 6e5a 88bd d5ba 92bd 71bb 4b3d
000003d0: 56d2 27bc 5f71 923c 816c 78bd f2bd e73b
000003e0: a609 9b3d 8c39 173d c257 66bd 60ec b23b
000003f0: 69f7 123d 35e4 cebc 8374 443c 3ca8 ea3d
0.034928393 -0.016858226 0.079261675 0.04658014 -0.022284225 0.046499606 0.07067026 0.05657917
0.049919643 0.0726832 -0.052220635 0.06416515 0.012252933 0.04897283 0.05686438 -0.09032533
-0.084045395 -0.007201393 -0.046078555 0.039698295 0.008581561 -0.046775814 0.022360737 -0.0578158
-0.049369063 0.04466347 0.04503192 -0.054243013 0.0021357117 -0.008878977 0.017876072 0.010376292
0.08146646 0.066553526 0.04141989 0.06543217 0.0934583 0.03103377 0.073523074 0.031604763
0.016324049 -0.03513413 -0.029171454 -0.08965928 0.01494631 -0.067061216 0.03366907 0.04488859
0.023226686 -0.065645255 0.03508342 -0.031673685 0.009373124 -0.040341556 -0.12538818 -0.05351681
-0.05375789 -0.116178535 -0.18366423 -0.178434 -0.024913492 0.026321722 -0.022012256 -0.09197273
-0.17535248 0.10409307 0.041829906 0.06673359 -0.023184387 -0.066493355 0.07733352 0.058327336
0.04134598 0.09078564 -0.000609056 -0.066954955 0.018371407 0.058818154 0.0030566428 0.026148373
-0.04078737 0.0463224 0.051779985 0.099819064 0.097486734 -0.04658989 -0.0934858 -0.025424877
0.0014260082 -0.007142133 -0.057990056 -0.08694156 -0.08405946 -0.018073274 -0.016169868 0.048167787
-0.07459158 -0.03676779 -0.047840577 -0.04739105 0.008534473 0.06419709 0.001395675 0.049994428
0.036202956 0.00880071 0.06851899 0.1441515 0.052573197 0.020897225 0.04034757 0.1253215
0.14499362 0.12653221 -0.016869953 0.01997807 0.047383275 0.04451043 0.08129767 -0.08777794
-0.07578651 -0.026309732 -0.06279636 0.015541597 0.022394821 -0.037462454 0.04544718 -0.031723633
-0.008751824 0.0046506757 -0.0065781316 -0.0009788887 0.08990794 0.081187375 -0.011092331 0.018664418
-0.024863742 0.030466134 0.07831481 0.08690151 -0.056684256 -0.005844568 -0.036590498 0.0667619
0.06553698 -0.011765849 -0.034536783 -0.05977559 0.046014365 0.01819086 -0.04510195 0.012611127
-0.027637249 -0.115177624 -0.083690755 0.023314226 0.04943358 -0.0017898362 -0.0977218 -0.08355472
0.040308174 -0.02899079 -0.022651896 -0.09169544 -0.0702238 0.03672324 -0.0056799585 0.013831858
-0.011935682 0.064547315 -0.04856172 0.035559174 -0.06257738 0.04141723 0.059366506 -0.012401055
-0.020559747 0.01292836 -0.08404223 -0.11463072 -0.01581118 -0.08421298 -0.05507736 -0.06920767
-0.103062876 0.013570405 -0.073339805 -0.063729465 -0.15137193 -0.14617579 -0.017468555 -0.024043627
-0.022380143 -0.048483636 -0.024342928 0.08679496 0.07602369 0.14573698 0.13192195 0.059590403
-0.048534606 -0.08734065 0.01350874 -0.057237256 0.03185734 0.015347957 0.044088386 0.16286747
0.056115925 -0.011924533 -0.054945692 0.07862551 0.121618226 0.069477916 -0.068029866 0.00014368077
-0.011810697 0.04888156 0.10031053 -0.10247937 -0.10770263 -0.10923177 -0.10262226 -0.033123896
-0.08536109 -0.021253735 -0.018155027 0.0420725 0.054124303 -0.055004824 -0.020528657 0.04045716
0.08323401 0.030124614 -0.038024362 -0.044391304 0.049541593 0.02429306 0.046906725 0.01842747
-0.05660386 -0.06657873 -0.07164542 0.049739305 -0.010243019 0.017876325 -0.060650352 0.007072204
0.075702 0.036920115 -0.056236036 0.005460307 0.03588048 -0.025255302 0.011990669 0.114578694

conv2.bias f4 [20]
00000000: 200c 4d3c ac04 c1bc 3748 423c 78b8 4fbd
00000010: e8de 833c 64a7 0a3d b3f5 313c f44d 383d
00000020: 6c36 f2bb 5328 96bd afd1 a13d 145d 163b
00000030: e0c4 babd 092a aebc 926c 1fbd 6a37 4f3d
00000040: 6fef 1cbd 3bcb 49bc 12f9 63bc 4303 24b9
0.012515098 -0.023561798 0.011858038 -0.050713032 0.0160975 0.033851042 0.010861802 0.044996217
-0.0073917415 -0.0733191 0.07901322 0.0022943662 -0.09119582 -0.021260278 -0.0389219 0.050589956
-0.03831428 -0.01231652 -0.013914363 -0.00015641474

fc1.weight f4 [50, 320]
00000000: e1af 21bd 4cca b4bd cb1e e3bd 2b17 903d
00000010: 88e3 923c 43af b43b 40f5 9dbb 8fa1 a03d
00000020: fb3a 69bd 9893 bfbb a2b7 533b a411 20bd
00000030: 1426 be3c 57cc ddbb c7a9 9c3c 5556 dcbc
00000040: 23c4 523c 1bfe c33d 8a01 c53d 2f5e 003e
00000050: 2f32 083d 91ed 8fba f041 a2bc 14a4 0fbe
00000060: 2c19 9dbc de69 61bd 3ac5 86bd 16a0 08be
00000070: 081e 223c 93f8 8f3d 6804 623c cedc 023d
00000080: ef39 b0bd 4076 b3bd f355 f23c 080f e73d
00000090: fbaf d13c 49bb 3cbc e7c5 383c 9389 903d
000000a0: ad9d b23b 1a18 5fbc cf6d 01bd b9ab 0a3c
000000b0: 6331 80bc c65c b83c 6ee3 25bb 6e1f b93d
000000c0: 4f00 8cbc c602 323d 3ced 4b3d f807 903d
000000d0: 153e 153d 6952 623d f62c c63d 87de 24bd
000000e0: 040a 063d b9d6 d03c c243 223e 1f8a b2bd
000000f0: 0da0 4cbc d2b6 a73d 55ec a83c d62a 5e3a
00000100: c97c 90bd e3e0 c53b cb65 cb3c 1dea f9bc
00000110: b0d8 d13a 00bb 2b3d e6fa 9b3c 40ad 943c
00000120: 97ac 313c 97d5 523d 9645 823b 9a85 f4bc
00000130: f03f 313d db47 79bb 7830 6c3d 53ea 2b3c
00000140: 7c4e fabc 871b 42bc d9e4 1d3e f6b6 c53d
00000150: 543a 07bd c33b 9a3d db38 b93c f345 103c
00000160: 21ef 1cbc 2514 953d 7e00 05bd 4f1f a13d
00000170: 96da ca3c 59d2 4e3c f673 80bc 403c 9d3d
00000180: 962e 34bc 8a7e f4bc bda7 4a3b 3dbb 933d
00000190: 0b82 61bd 2402 5a3d 59c3 eabc 5aad bf3d
000001a0: d781 fbbb 683a 353d 5fd5 be3c e813 d53d
000001b0: c699 06bd 845b 8d3c 0e5f 903c 4762 7ebc
000001c0: 9f36 b1bd 009c d8bb b37e 603c 3f4f 123e
000001d0: 9052 6bbd 9d8b c0bb 6926 0cbd 4662 703d
000001e0: 0aa6 b63b 959a adbc 8a1f fbbb f69d eebc
000001f0: 4ce1 69bd bd03 f03c 9ff1 b83d a525 76bd
00000200: 1691 bfbd 1218 13bd a877 2cbd 3e63 c2bc
00000210: 6193 4dbd 039f 19bc 469b af3b 622a 123d
00000220: a61c e63c 2d8b 863c 7117 533c d02f 4c3d
00000230: 2123 a33c 0b1b c23d 1a2f c43c 8e2c d83d
00000240: cabc 5fbc d675 923c 3c33 733d 13aa 483d
00000250: 1bf5 443d b611 e3bc 9a2f 4b3d c818 9ebc
00000260: 7658 ecbc 51be d1bc 1273 88bc 3f60 4b3d
00000270: cbe9 65bc b851 7f3c 42a0 b93d 108b d23c
00000280: b562 41bd 626c 4bbd 82cd 9dbd 87bc 30bd
00000290: fc60 a93b 6bee 0abd aaee a43c 1095 b0bc
000002a0: 6eac f4bc a72b 0c3d c0a5 aa3d db26 db3d
000002b0: af38 df3d 521f c43c 1a8f 2d3c 8521 e33d
000002c0: 72cf 77bd a358 67bd fd87 773d 7e8a ef3d
000002d0: 972e c7bb 6618 a53c 2a7d 81bd 36e3 31bd
000002e0: e92b ec3c a73a 25b9 9d2e b6bc a296 45bd
000002f0: b85e dabc 402b d63b b605 ac3d 2c31 533c
00000300: b95e c5bd 61cc 39bd e972 05bd 8573 e53d
00000310: 9b37 2fbd 5fba 74bd 9558 27bc edc5 e73d
00000320: fe2d 883c c65b 90bb 5980 92bc b527 193c
00000330: 819c 8cbc 6f11 433c 615d 1bba be42 b63d
00000340: e020 863d d020 33bc 832a d4ba 7d0e 9fbd
00000350: 9bfe 04bd 3859 8cbc a312 4f3d cd1c 36bd
00000360: 5018 b53c 7475 963d 7b89 653d 770e 9c3d
00000370: c54c f3bb ed33 1c3c fcee 103d e74d 8d3d
00000380: 60a8 c23a 5e78 9ebc eafa 8fbd 5ab0 15bd
00000390: c00c aebc be46 823d 879a f2bc 1050 51bd
000003a0: c7e3 e0bc 9993 8f3b d613 63bc fb0f b4bc
000003b0: 54e0 f0bc 489b debc 467f 49bd cbc3 7a3d
000003c0: bc91 9dbc 97b9 f6bc 32d9 63bc 155c 4bbc
000003d0: 0327 f5bc 3e99 2dbc 0495 1dbd 5a58 9cbc
000003e0: 9a16 04bd e2c6 82bb c4f6 583c 6bf7 18bd
000003f0: 338b 1dbc 06b9 c9bc 9cdf d93c 1810 5fbd
-0.03947437 -0.088276476 -0.11089858 0.07035669 0.017930761 0.005514057 -0.004820496 0.07843315
-0.056941014 -0.005846452 0.0032305499 -0.039079323 0.023211516 -0.006768744 0.019123925 -0.026896635
0.012864145 0.09569951 0.09619434 0.12535928 0.033250984 -0.0010980834 -0.019806832 -0.14027435
-0.019177042 -0.055032603 -0.06580587 -0.13342318 0.009894855 0.07029834 0.013794996 0.031948857
-0.086048 -0.08762789 0.029582 0.11282164 0.02559661 -0.011519262 0.011277652 0.0705749
0.0054509253 -0.013616586 -0.031598862 0.008463793 -0.01564855 0.022505175 -0.002531256 0.09039198
-0.01708999 0.043459676 0.04978679 0.0703277 0.03643616 0.055254374 0.09676544 -0.04025128
0.032724395 0.025493013 0.1584616 -0.08717751 -0.012489331 0.08189167 0.020620504 0.0008475011
-0.07055051 0.0060387715 0.024828812 -0.030507142 0.0016010012 0.041926384 0.019040536 0.018149018
0.010844371 0.051473226 0.0039755804 -0.029848862 0.043273866 -0.0038037214 0.05766341 0.010492879
-0.030555002 -0.011847383 0.1541933 0.09654038 -0.03301461 0.0753093 0.022610119 0.00880574
-0.009578497 0.07279233 -0.032471173 0.078673 0.024762433 0.012623393 -0.015680294 0.076775074
-0.010997435 -0.029845495 0.0030922734 0.07213447 -0.05505566 0.053224698 -0.028657602 0.09359236
-0.00767539 0.044245154 0.023295103 0.104041874 -0.032861494 0.017255552 0.01762345 -0.015526361
-0.08652996 -0.0066103935 0.013702082 0.14288042 -0.057451785 -0.005876018 -0.03421632 0.05868747
0.0055739926 -0.021191875 -0.007663672 -0.029128056 -0.057099625 0.029298658 0.090304606 -0.060094494
-0.09353845 -0.035911627 -0.0421063 -0.023728963 -0.05018938 -0.00937629 0.005359086 0.03568495
0.028089833 0.016423786 0.012884007 0.049850285 0.019914212 0.09477814 0.023948241 0.10555373
-0.013655851 0.017878454 0.059375033 0.04899032 0.048085313 -0.027718406 0.049605943 -0.019298926
-0.028850775 -0.025603445 -0.016656432 0.049652334 -0.014032791 0.015583448 0.0906377 0.025701076
-0.047213275 -0.04966391 -0.07705213 -0.043148544 0.005169032 -0.03391878 0.020133335 -0.021555454
-0.029867377 0.034221318 0.083323956 0.107007705 0.108994834 0.023940716 0.0105932 0.11090378
-0.06050057 -0.056481015 0.060432423 0.11696337 -0.006078552 0.020153236 -0.06322701 -0.043429576
0.028829532 -0.00015757476 -0.022239024 -0.048239358 -0.026656494 0.0065359175 0.08399527 0.012890141
-0.096372075 -0.045360927 -0.03258029 0.11203674 -0.04277764 -0.05974805 -0.010213991 0.11317048
0.016623493 -0.0044054715 -0.017883467 0.009347846 -0.01716447 0.011906012 -0.00059266953 0.08899449
0.06549239 -0.010933116 -0.0016186986 -0.07766435 -0.032469373 -0.017132387 0.050554883 -0.04446106
0.02210632 0.07346621 0.056039315 0.076199464 -0.007424923 0.009533864 0.035384163 0.06899624
0.0014851205 -0.019344505 -0.0703028 -0.036545135 -0.021246314 0.06361149 -0.0296147 -0.051101744
-0.027452363 0.0043816087 -0.01385971 -0.021980276 -0.029403843 -0.027173653 -0.049193643 0.06122188
-0.01923453 -0.030117793 -0.013906764 -0.012412091 -0.029925829 -0.010595618 -0.03847219 -0.019085098
-0.032248117 -0.003990994 0.013242427 -0.03734533 -0.009615707 -0.024624359 0.026595883 -0.054458708

fc1.bias f4 [50]
00000000: f3de 5d3d 0669 2dbb 3611 8a3d 5147 66bd
00000010: 86ef 143d 143d 933d 2211 083d a832 85bd
00000020: 4462 cd3b 8af6 b3bc 611e 223d 3011 123d
00000030: 176c 06bd b4f7 953b e013 613d 1331 c53c
00000040: 9e54 11bd d143 8c3d cae2 023d 072b ae3c
00000050: 2aa1 993c 6cc7 8dbd 703a ee3c 26a2 6a3d
00000060: af6e 593c 0c0c 043d c1cd 7abd d688 a5bc
00000070: b2b8 833d eee2 03bd c38b 86bc b6d4 2abd
00000080: 8870 a93c 0570 983d a4dd 763d 6c96 2e3d
00000090: 3a5f 1d3d 0140 70bd 8e6c 6a3d fd83 aabb
000000a0: 5a99 1c3d 8e6e 41bb ec15 c93c 813e e43c
000000b0: 46ed 343d d419 cabc 8363 443c 67ac 4dbd
000000c0: 8215 adbc 580a a73c
0.0541677 -0.0026460304 0.06741564 -0.056220356 0.03636124 0.07189384 0.033219464 -0.065038025
0.0062678177 -0.021968145 0.039579753 0.035660923 -0.032817926 0.0045766477 0.054950595 0.024071252
-0.035481088 0.068488725 0.031954564 0.021260751 0.018753607 -0.06922802 0.0290806 0.057283543
0.013271018 0.03223805 -0.06123138 -0.02020685 0.06431712 -0.03219884 -0.016424065 -0.041706763
0.020683542 0.07443241 0.060269967 0.042623922 0.038420893 -0.05865479 0.057232432 -0.0052037225
0.038232185 -0.0029515359 0.024546586 0.027861835 0.044171594 -0.024670519 0.011986616 -0.050213244
-0.02112842 0.020390674

fc2.weight f4 [10, 50]
00000000: cdef 8b3d b844 40be 0046 2b3e f4ef 00be
00000010: a7b8 f23c 122d f93d 2921 14be 363f e03d
00000020: 34bf 133e 990d 5a3d f30d 0fbe 7765 033e
00000030: 4063 9dbe 834d 62be 17a4 093e 4997 d53d
00000040: c3e1 68be 432d 39be 2760 25be ab6a 833c
00000050: 2a90 b8bd b8c3 abbd 7cfb ae3d f0f9 4bbe
00000060: 6fec 90be 011b e3bd 6ee9 2fbe f54b 973d
00000070: 739a a63d 8cef 26be 5dca e13d d08c 1bbe
00000080: ee2d 013e 42a9 f5bd ca81 42be cbc8 7bbe
00000090: 31d5 33be 6fcc 4ebd d98f 2ebe d099 27be
000000a0: 932c c83d 557a 063e 073c 63be 0a02 a53d
000000b0: 637b 6cbe 0427 00be 2fd2 23be d0b4 08be
000000c0: 40c4 d63d cd44 8c3a 786e e83d e411 96be
000000d0: 51d3 163d fa25 303c ed64 02be 7dbe 233e
000000e0: f9fe 0b3e 43a5 73be a121 49bd d79d 67be
000000f0: d054 3bbe c346 75be adb0 013e 84c3 2ebe
00000100: 32e6 f23d 459b 55be f445 5e3d 6cf3 3dbe
00000110: 1500 173e a6f9 88be 2ddc 1abe de6e bd3d
00000120: d823 09be 9e0b da3d 9fd6 533c b657 f6bd
00000130: 008c 1f3e 3d1e 16be c8a9 4bbe 76d0 8dbe
00000140: 8c0e 7fbe a1af 08be 3177 0d3e 7b9a 223e
00000150: 03c7 863d a2da 01be ee57 da3d adff cabd
00000160: 0659 dc3d ee8c 0fbe 707a a5bd 2fae 043d
00000170: 5b2c cf3d d695 5abe c12d 0dbe b01a acbd
00000180: 58ba b93d cbd3 34be 6ffc 9e3d f62a 42bd
00000190: cef2 e5bc 6830 85bd 1ac6 80bd a831 923d
000001a0: 3912 053e 5bc8 22be f158 abbd a8af 463d
000001b0: aaf3 99bc 7b66 8cbe 03dd 993d ac33 abbd
000001c0: 9fe9 0dbe 36a0 dcbd 7772 0f3e efca a93c
000001d0: b1ce d93d 4854 d9bd 371d 16be 02b0 7dbd
000001e0: fc89 823c b71f f63d da8e 3abe 7cf5 4abd
000001f0: 3117 5bbe a937 f8bd ad97 0c3e 8172 a43d
00000200: 86e9 abbd 01a2 81be f4f1 4cbd fed4 223c
00000210: 6c61 7abe 9c88 f2bd c411 45be 38e7 6d3c
00000220: 7f53 cb3d d43f b43d 68c4 afbd 800a cb3d
00000230: fee8 d13d 7ee0 193e e74f 49be cb87 f5bd
00000240: f4b9 52bd 3e58 2e3e a4f2 fa3d 88a3 56bd
00000250: a85e b93d a51b 213e 9075 f7bd 9cb7 d43d
00000260: 498e c5bd 30f3 c83d 1ff9 f0bc d112 0fbe
00000270: efa5 65be ed8c febd 5aa3 eb3d a605 c8bd
00000280: a2cd d8bd 4555 1fbd f60c a13d 3a90 833d
00000290: 7606 dfbd 4687 803d 0ffb 34be fed7 983d
000002a0: 28b4 6bbe 01a2 0e3d a9ac 903d 35cb f03d
000002b0: 5859 05be a3ce 0b3e b902 adbd 26ea d43d
000002c0: e859 f53d ab31 b0bd 3a10 0ebe 2fe9 36be
000002d0: 4f53 953d ab91 0a3e 77b3 6bbe 3f1e 05be
000002e0: 1f77 2bbe 3532 87bd 0e96 26be ba58 cdbd
000002f0: 7078 df3d d795 d63d 1f89 913d 6c97 95bd
00000300: 944b d0bd 3d65 08be b030 ff3c 3a0f adbc
00000310: c764 c33b 01e6 84bc 6bb0 68bd 4959 1e3e
00000320: 2cc7 febd 8600 0fbe a8be 5dbe 1f84 d0bd
00000330: cef6 02be cc3c 7f3d ecab ef3d 60f5 c63d
00000340: bda6 5cbe 9058 de3d d125 f93d a79f 91bd
00000350: 821b 8b3b c900 023d dfa9 09be 616d 4abd
00000360: e29c e2bd 4b4e 46be 7be5 1c3e 5e2a 75be
00000370: 5047 033d 9675 52be 1088 3b3d 48e1 46be
00000380: e94f 8f3d 30da 46be 2fe3 cfbd a3c4 203d
00000390: 925c 7bbe 4c0c 033e 03a3 3abe cdb8 f33d
000003a0: 75ee 17be e3d2 0c3e 0e80 7e3d 490b e5bd
000003b0: d255 41be 060e 0e3e de27 93bd bfbb 29be
000003c0: bd86 2fbe 58c5 b23d c3d4 003e 3a9e e83c
000003d0: 2509 c33d 3e30 c8bc e9ff bd3d 25f4 243e
000003e0: 7721 44bd 9e0f ee3d 49e5 ec3d ac75 cf3d
000003f0: 2295 d0bd bf93 a5bd 7c56 44bd d38e cbbd
0.06832848 -0.18776214 0.16725922 -0.12591535 0.029629065 0.121667996 -0.14465775 0.109495565
0.14428407 0.053235624 -0.13970165 0.12831675 -0.30739784 -0.22099881 0.13441502 0.10429246
-0.22742371 -0.18083672 -0.1614996 0.016042074 -0.09011872 -0.0838694 0.085440606 -0.19919562
-0.28305385 -0.11089135 -0.1717889 0.073875345 0.081349276 -0.16302317 0.11024926 -0.15190434
0.12615177 -0.11995174 -0.18994823 -0.24588315 -0.17561795 -0.05048793 -0.17047061 -0.16367269
0.09774127 0.13132603 -0.22190867 0.080570295 -0.23093943 -0.12514883 -0.15998147 -0.13350224
0.104866505 0.0010701657 0.11349195 -0.29310524 0.03682262 0.010751242 -0.12733813 0.15990634
0.13671483 -0.23793511 -0.049104337 -0.22618805 -0.18294072 -0.23952775 0.12665053 -0.17066771
0.118603125 -0.20860012 0.05426593 -0.1854989 0.14746125 -0.26752967 -0.15123053 0.09249662
-0.1339258 0.10646747 0.012929588 -0.12028448 0.1558075 -0.14659972 -0.19888985 -0.27698106
-0.24907893 -0.13348247 0.13814999 0.15879242 0.06580927 -0.12681058 0.106613025 -0.099120475
0.107591674 -0.14018604 -0.08079994 0.032392677 0.10115882 -0.2134622 -0.13786985 -0.08403528
0.090687454 -0.17658918 0.07762992 -0.047404252 -0.02806988 -0.065033734 -0.06287785 0.071383774
0.12995233 -0.15896742 -0.083665736 0.048507363 -0.018792946 -0.27421936 0.07512858 -0.08359465
-0.1385865 -0.10772745 0.14008509 0.02072665 0.106351264 -0.106117785 -0.14659582 -0.061935432
0.015934937 0.12017768 -0.18218556 -0.04955052 -0.21395566 -0.12119991 0.13729735 0.080296524
-0.083941504 -0.25318912 -0.050035432 0.009938477 -0.24451226 -0.118424624 -0.19245058 0.014520459
0.09928035 0.08801237 -0.085823834 0.09914112 0.10249518 0.15027043 -0.19659387 -0.11988791
-0.05144687 0.17025849 0.12253311 -0.05240205 0.09051257 0.15733202 -0.1208297 0.10386583
-0.09646279 0.09812009 -0.029415665 -0.13972022 -0.2242658 -0.12429223 0.11505766 -0.09766702
-0.10586096 -0.03889968 0.078638 0.064239934 -0.10889904 0.06275801 -0.17673896 0.07463072
-0.23017943 0.034822468 0.07064182 0.11757509 -0.13022363 0.13653044 -0.08447785 0.10396223
0.11980039 -0.086032234 -0.13873377 -0.1786239 0.072912805 0.1353213 -0.23017679 -0.12999819
-0.1674466 -0.06601373 -0.16268179 -0.10026689 0.109116435 0.104777984 0.07106232 -0.07304272
-0.101706654 -0.1331987 0.031151146 -0.021125425 0.0059629413 -0.016222956 -0.05680887 0.15463747
-0.12440333 -0.13965043 -0.21654761 -0.1018145 -0.12789461 0.06231384 0.11702713 0.0971477
-0.2154798 0.10856736 0.12165416 -0.071105294 0.0042452225 0.03173903 -0.13443707 -0.049420718
-0.11065079 -0.19365804 0.15321915 -0.23941943 0.03205043 -0.20552668 0.045784056 -0.19421875
0.069976635 -0.1941917 -0.10150754 0.039250027 -0.24547032 0.1279766 -0.18226247 0.11900482
-0.14837058 0.13752322 0.06213384 -0.11183793 -0.18880394 0.13872537 -0.071853384 -0.16575526
-0.17141242 0.087290466 0.12581162 0.02839576 0.095232286 -0.024437066 0.092773266 0.16108759
-0.047883477 0.116240725 0.1156717 0.10129866 -0.10184695 -0.08084821 -0.04793404 -0.09939351

fc2.bias f4 [10]
00000000: a736 06bd 3fbd 443e 12e3 26be 703f b1ba
00000010: f7ee 08be bf3d f9bc df4c 9fbd 1374 2abe
00000020: 8936 313e 97ce efbc
-0.032766964 0.19212817 -0.16297558 -0.0013522934 -0.13372408 -0.03042495 -0.07778334 -0.16645841
0.1730596 -0.029273314
